param_nonquant/encoder.layers.8.conv.pointwise_conv1.bias.npy (npy, 1536 bytes, 1 tensors)

array f4 [352]
000000 1d ef 0f bf 26 a3 b3 3e 32 de 2e bf e9 48 83 bd
       -0.5622423 0.3508541 -0.68307793 -0.06410391
000010 92 2b 99 3e 7f f6 a2 bf c5 8d 84 bf 22 1e ad 3e
       0.29916054 -1.2731475 -1.0355765 0.33812052
000020 40 ae 1e bf 51 d9 4b bf 64 42 80 be fd 22 7e bd
       -0.61984634 -0.79628474 -0.25050652 -0.062045086
000030 8e c6 09 bf 5e 82 17 3f 61 ea 46 be 8f bf 03 3e
       -0.53818595 0.591833 -0.19425346 0.12866043
000040 ee 42 f3 bd b2 ec 55 bc ab f8 d6 3d cc ba 10 bf
       -0.11878 -0.013056921 0.104966484 -0.5653503
000050 39 c6 c3 bf a9 5f 16 3f 82 6c 54 bf bc 15 26 bd
       -1.5294868 0.58739716 -0.8297807 -0.04054807
000060 32 32 ad be ec 34 84 be 62 3b 2c bf 04 b5 0e bf
       -0.33827358 -0.25821626 -0.6727811 -0.5574496
000070 1d 30 92 3f fc b2 81 3c 8a a9 22 3e bd fb 06 bf
       1.1420933 0.015832417 0.15884987 -0.5272787
000080 d0 78 e2 bd 11 19 8b be e6 d0 5b c0 38 d5 32 40
       -0.110581994 -0.27167562 -3.4346251 2.7942638
000090 a1 05 37 3e 3e 81 2a 3f 9d bb 99 3f 7f 1e 8c be
       0.17873241 0.6660346 1.201038 -0.27367017
0000a0 bc 23 6a 3f 01 cd 87 c0 00 62 c6 bd 3e 1b 7a 3e
       0.91460776 -4.243775 -0.09686661 0.24424455
0000b0 19 ee c5 3f 44 af b0 bf 10 76 c3 3e d5 88 da 3d
       1.5463287 -1.3803487 0.38176012 0.1067063
0000c0 aa f7 ba bf 4c e9 47 c0 ed 0b 1c be e8 42 51 be
       -1.4606831 -3.1236143 -0.15238924 -0.20435679
0000d0 7e 45 16 3f 74 fa a5 3d f9 09 08 3f a1 26 fa bd
       0.58699787 0.08104411 0.5314022 -0.12214399
0000e0 36 46 30 3f 87 ea 86 bf 33 e7 89 3f e1 97 ee 3f
       0.68857133 -1.0540322 1.0773681 1.86401
0000f0 10 73 17 3e c8 57 fe be 14 aa 8f 3e f2 0b d2 3e
       0.14789987 -0.49676347 0.28059447 0.4102474
000100 aa 1e 6e bf 2e 7d 5b 40 68 1e 09 3f e1 9b 9c bf
       -0.9301554 3.4295154 0.5356202 -1.223507
000110 9e 42 ab 3c 64 9d 19 bf a4 c2 02 3e f1 7f 25 3e
       0.020905789 -0.60005784 0.12769562 0.16162087
000120 dd fe 3a 3f f8 bb 73 bf 64 b8 29 3f aa c4 fd 3f
       0.7304514 -0.9520869 0.6629698 1.9825642
000130 d4 f5 33 bc 0b 42 5f bd 42 e2 ce be d8 fd 3b 3f
       -0.010983903 -0.054506343 -0.40406996 0.7343421
000140 aa 25 bd 3e f7 7f ee bd 01 eb 13 bf 37 8a 98 3f
       0.36942798 -0.11645501 -0.5778046 1.191718
000150 00 ed eb 3d 3e 7a 89 be 4f 60 bf 3e 60 70 76 3f
       0.115198135 -0.26851076 0.37378165 0.9626522
000160 a5 12 e1 bd 82 95 3e 40 68 c2 3a be 9a 6a 2b 40
       -0.10989884 2.9778752 -0.18238223 2.6783814
000170 a6 c0 be be 1e f9 28 3f c5 34 43 40 f6 bc 6d 3f
       -0.37256354 0.6600512 3.0500958 0.92866457
000180 d4 73 ae 3e 12 c5 0d 3f 40 6e 0e 3d 50 e4 20 3f
       0.34072745 0.5537883 0.03477311 0.6284838
000190 2c 60 2a 3e 8a 7a 29 bf 42 b5 d3 3f c0 74 1c bf
       0.16638249 -0.66202605 1.653969 -0.61115646
0001a0 8d 3e 85 bf d8 90 ab be 18 af 51 bf 38 95 5a bd
       -1.0409714 -0.33508945 -0.81907797 -0.053364962
0001b0 5e 3c 09 bf 7c cf c9 3a 7e 87 92 bf 30 39 2f 3f
       -0.5360774 0.0015396918 -1.1447599 0.68446636
0001c0 15 11 82 bf bb a4 6e bf f8 16 12 3f d7 e2 1b 3d
       -1.0161463 -0.9322011 0.570663 0.03805813
0001d0 97 7b 02 bf 56 2f 73 3d 72 0d 9f 3f 0c db d2 be
       -0.50969833 0.059371315 1.2425978 -0.41182745
0001e0 8b 86 46 3f bb e3 f0 be ca 34 60 bd 62 e8 45 bf
       0.77549046 -0.47048745 -0.054737844 -0.77307713
0001f0 6c 11 eb bd 10 b7 85 3f 82 88 0c 3d b1 51 9c bf
       -0.11477932 1.0446491 0.03430987 -1.221243
000200 8f b2 39 3c eb 30 46 40 e5 44 62 bf b2 3a e3 3e
       0.011334076 3.0967357 -0.88386375 0.44380718
000210 59 9f e0 3e af e7 0e 3e f8 3c 42 3d 7a 8f 4a 3e
       0.43871573 0.13955568 0.047421426 0.19781294
000220 55 f2 5c bf a8 32 31 bf 81 ce 2d bf 33 c9 e5 3e
       -0.8630727 -0.6921792 -0.67893225 0.44880065
000230 e9 4a 9b 3e 61 0d d1 3e 3a 85 0d 40 de da 6c bf
       0.3033059 0.4083052 2.2112565 -0.92521465
000240 8c 28 02 bf 30 c7 8a bf ca 3d a8 3f 3c 77 57 be
       -0.5084312 -1.0842037 1.3143857 -0.21041578
000250 88 c8 1d bf dd 14 21 bf 9c 92 a4 bd d4 a3 b6 3f
       -0.6163411 -0.6292246 -0.08035776 1.4268746
000260 fa a7 0d 3e a2 88 9b bf 5e 05 88 bf 86 f9 5f 3f
       0.13833609 -1.2151072 -1.0626638 0.8749012
000270 9d 9f 50 3d 2a 80 bd bf 07 0d 85 3d 45 4d bb bf
       0.05093347 -1.4804738 0.064966254 -1.4632956
000280 98 3c d4 be bf 71 49 c0 11 e7 ac bd a8 3b f0 3e
       -0.4145248 -3.1475675 -0.0844251 0.46920514
000290 b5 52 20 40 f2 c1 1a bf 0b 01 c2 be 08 6e 85 3f
       2.505048 -0.6045219 -0.3789142 1.0424204
0002a0 7c e5 22 c0 3a b4 37 3f dc ba 5b bf 9a c6 8d 3f
       -2.5452566 0.7175938 -0.85832 1.1076233
0002b0 68 4f fa be 7a ce 1d 40 a5 73 cd be 90 e1 7e 3f
       -0.48888707 2.4657273 -0.40127292 0.9956293
0002c0 6b d3 4e be 7e 5a f1 bf 84 10 a4 bf ba 8d 80 3f
       -0.20197837 -1.8855741 -1.281754 1.0043252
0002d0 2f 4e 32 3e a2 5a df bf a0 5f 01 c0 d2 84 61 bf
       0.17412637 -1.7449534 -2.0214615 -0.8809329
0002e0 00 95 ea bf 6b 36 cd bf bf 87 91 be c0 e5 e2 bf
       -1.8326721 -1.6032232 -0.2842388 -1.7726364
0002f0 1f 4c bd bf ef ca b5 bf 04 cd 93 3e d2 53 00 c0
       -1.4788855 -1.4202555 0.28867352 -2.005116
000300 8a 28 be be d6 4d 9c 3d 12 9b b3 bf c9 61 ee bf
       -0.37140304 0.076320335 -1.4031699 -1.8623592
000310 49 8e d5 bf 72 6b 6a 3e ea 4c 0a be f3 b6 9e 3f
       -1.6684047 0.2289255 -0.13505903 1.2399582
000320 4f 48 d1 bc 0f 2c a3 bf 12 9f d8 3d fb f4 35 bd
       -0.025547175 -1.2747821 0.10577215 -0.044423085
000330 34 b1 ba bf 20 1f 19 3f 0b 8f 10 3f c6 df 69 bf
       -1.4585328 0.5981312 0.56468266 -0.91357076
000340 0f c4 cd 3f 47 30 7b 3e 33 fb fa 3d 48 37 c4 3f
       1.6075457 0.24530135 0.12254944 1.532937
000350 e3 64 12 bf 33 8a a9 be 66 f9 ea be a3 0a 02 c0
       -0.5718519 -0.3311325 -0.458934 -2.0318992
000360 09 4a 65 bf 18 81 09 be c0 f2 cb bf 27 08 09 c0
       -0.89566094 -0.13428152 -1.5933456 -2.1411226
000370 a9 64 9b bd 92 9e e6 be d8 fc 64 bf 06 b5 18 3f
       -0.07587559 -0.45042855 -0.8944831 0.5965122
000380 b0 62 e5 3e cb cd 11 bf 6d e2 80 bf 59 d8 32 be
       0.44801855 -0.5695464 -1.00691 -0.17465343
000390 19 f0 04 bf 42 fb 1b bf 04 c3 f3 bf 27 fd 26 bf
       -0.5192886 -0.60930264 -1.9043889 -0.6523003
0003a0 82 f5 10 c0 14 b4 55 bf 9c 9e 63 bf 2a f7 d6 3e
       -2.2649846 -0.834779 -0.88913894 0.41985446
0003b0 de 9e 15 be 4e 19 f7 bf 4a 0b 20 bf be 35 8d bf
       -0.14611384 -1.9304597 -0.62517226 -1.1032026
0003c0 5a 1f b5 bf 82 c5 cb 3f 6c e4 43 3e 17 98 e0 be
       -1.4150193 1.591965 0.19130105 -0.43866035
0003d0 34 a5 0e c0 5e d9 af bf ab bd c5 be 4c 28 e1 bf
       -2.2288332 -1.373821 -0.38621268 -1.7590423
0003e0 e3 bd d5 bf c0 12 db bf dd 44 cf 3e 90 43 0a 3f
       -1.6698574 -1.7115097 0.40482226 0.5400934
0003f0 d4 de 64 3f d6 41 9c be ac 59 0a 3f 2d 3e b6 bf
       0.8940251 -0.3051898 0.5404308 -1.4237725
