param_nonquant/encoder.layers.7.conv.pointwise_conv1.bias.npy (npy, 1536 bytes, 1 tensors)

array f4 [352]
00000000: 541b 643c 365c 433f 0080 9dbf 8d3c 60bf
00000010: 31ac 06bf 57b1 6b3f da6b f83d 30eb 5bc0
00000020: 91ed 5cbf 10a5 943d 74f5 e43d 9790 76be
00000030: de41 633f 65ff 7a3f 1db3 2d3f de37 12be
00000040: d727 a83d 81de d9be 5a0b 0540 facf eb3f
00000050: b1c6 033e 5252 15c0 135e dabe cc8f 77bf
00000060: 7a72 7c40 955e b53d 62a7 b83e 1c06 4f3f
00000070: 80d4 1cbf 9a6c c63f f341 89be d8f4 dfbd
00000080: b2aa 6fbf da6e 83be 4f0e 32bf 4ff7 6dbf
00000090: 16c5 ad40 49db adbf fba1 2dbf 2b98 3f3f
000000a0: 73b3 573f 34f9 ba3f 42c1 8fbe f6af e23e
000000b0: 2864 8dbe 0f19 1a3f 2387 f23e 7c3e ee3e
000000c0: 8cf7 ddbe 9a37 9bbf 0c6d 51bd 895b 843f
000000d0: 8609 a83f 2777 57be 8ec7 b1be cdf6 683f
000000e0: f810 9ebf 2ec5 abbe b0e1 4d3f b5cb 893d
000000f0: 35b3 a8be 21e4 c3be 1cc3 ed3e 71cc 3bbf
00000100: 51a8 193f 4ef8 be3f c0c2 2640 af57 883f
00000110: f10c 4c3f e080 603f fdd0 2b3f eeea ccbe
00000120: 33ca 8e3e aeb3 b13e 9e32 8abe 48bd 9abf
00000130: 2ed9 953f 73ad 2ebf c363 7b3f 1aa1 fd3e
00000140: 6ce9 7a40 8d65 1b3f 0433 7fbf 4aa6 16c0
00000150: 531c fa3e c8fc ad3e f98e 323f a7de babe
00000160: a4ca 12c0 2692 8f3f a6d0 7d3e 6f84 92bf
00000170: c871 9abf 787d 9c3f d36e 83bf f363 3c3f
00000180: b2d4 9340 2ba0 c7bc c923 543f 1ab4 af3f
00000190: 3a51 1a3f b03e 0540 bf13 703f 94ad 0440
000001a0: 2b21 95bf f421 453f 858e 3ebe 75a6 69bf
000001b0: 92b0 0dbf 0730 ddbe 6c34 01be 4a1f 6abe
000001c0: eb73 b6bc 2e57 acbe 82d8 863f dcc7 203d
000001d0: 4563 e93c 8b29 963e 541e 80bf c623 c13d
000001e0: b6cc 91be 42e9 fc3e baaa 2140 dca1 91bf
000001f0: 60fd 3d3e e0ba 85bf 761b 9ebf 2d9e 043f
00000200: 6a75 e9bd 687a 883f 78d4 a53f 1da0 8abe
00000210: dd79 d5bd 9fa5 383f 33a4 e93e d01a a33e
00000220: cdfa 3dc0 fc8e 83bf 9a68 28bf 5a04 03c0
00000230: 846a a93e bd34 ffbe dde5 f4bd b1c8 70bf
00000240: 656c cc3e 94fc 14c0 56bd 2a3f 94cc 31bf
00000250: 1750 783e 5fcd 70be 589f 193f d728 153e
00000260: 5045 1ac0 c2c4 913d f582 763e 8da7 96bf
00000270: e7bf 9c3f e758 333f 1050 b83e ea50 fc3d
00000280: 5806 88bf 8c13 b2be 5e50 33bf b260 bebf
00000290: 6848 adbd fc14 87bf 9ab9 b5bf 3a1b 2d3f
000002a0: f06d 8f3e b0cc 823f 475d d4be f0b3 7cbf
000002b0: 4e2b c2be 59aa 913f 8f1b 0040 3af1 503e
000002c0: 9628 adbf 86d0 db3e 8c46 e8bf eb3e 483e
000002d0: 409a 69bf d1b7 40bf 1a42 bdbd 3996 1f3f
000002e0: 9a68 3ec0 c691 c7bd a07a e1bf 851f ddbf
000002f0: 0299 dd3f 0c6b 83bf 14c7 bdbf 599d 213d
00000300: 62f5 45bf 6ef7 85be fec7 4dbf b4ef a23f
00000310: 0ac4 6fbe 640c 1bbf faad 5ebf dbad 38bf
00000320: a9f0 49be f34e c0bf 6f07 c33f 50be c43d
00000330: 3433 013f 1a38 c6bf 84ce 493f 8c7b 28c0
00000340: ca81 afbe f33b afbf c25d 4bbf abf3 8abf
00000350: 99bb 1a40 6efe d13c f7b9 aa3d e4e4 743f
00000360: a006 cabf 88a6 b23e 55da 883e e09b ddbf
00000370: 3ab4 fdbe 064e 40bf f438 83bf 79d3 30bd
00000380: d0c7 87bf dee1 9c3f 2e59 52bf 8f35 f6bf
00000390: ce85 403d 9e2b 1f3f 589e 7abf 6acc 2d3f
000003a0: 4c69 82bf e09d 1fbf 790d 35bf 14de 49bf
000003b0: f31f 8bbf 1719 d2bd d4d0 683f 5429 00c0
000003c0: 8728 e43e 0746 eebf 4d29 a93f 5443 6dbf
000003d0: b05e 613e e39e 99bf 5a6d 0dc0 6162 04bf
000003e0: 410a d53e 7c10 d9bf 38e7 943c 1eee 13bf
000003f0: 5173 d4be fff0 2bbf 1db5 5c3f e974 de3e
0.013922531 0.7631258 -1.2304688 -0.87592393 -0.52606493 0.92067474 0.12129946 -3.4362297
-0.863 0.07258046 0.11179629 -0.24078594 0.8877238 0.9804595 0.6785143 -0.14279124
0.08210724 -0.4255257 2.0788178 1.8422844 0.12868764 -2.3331494 -0.42649898 -0.9670379
3.944487 0.08855931 0.36065203 0.808687 -0.6126175 1.5501893 -0.26808128 -0.10935372
-0.93619835 -0.2567051 -0.69553083 -0.9295549 5.4303083 -1.3582546 -0.6782529 0.74841565
0.8425819 1.4607301 -0.28077132 0.44274873 -0.27615476 0.60194486 0.47368726 0.46532047
-0.43352926 -1.2126343 -0.051129386 1.0340434 1.3127906 -0.21041547 -0.3472256 0.9100159
-1.2348928 -0.33548874 0.80422497 0.06728307 -0.32949224 -0.38259986 0.4643792 -0.7335883
0.60022455 1.4919527 2.6056366 1.0651759 0.79707247 0.8769665 0.67115766 -0.40022987
0.2788864 0.34707397 -0.26991743 -1.2089014 1.1706903 -0.6823341 0.981991 0.49536973
3.920497 0.6070183 -0.9968722 -2.3538995 0.48849735 0.3398192 0.6974941 -0.36497995
-2.2936182 1.1216476 0.24786624 -1.1446666 -1.2065973 1.222579 -1.0268196 0.7359001
4.619714 -0.024368366 0.82867104 1.3726838 0.6028019 2.0819511 0.9378013 2.0730944
-1.1650747 0.77004933 -0.18609054 -0.9126962 -0.5534755 -0.43200704 -0.12617654 -0.22863498
-0.02227207 -0.33660263 1.0534823 0.0392531 0.028489718 0.2932857 -1.0009255 0.09430651
-0.28476495 0.49396712 2.5260453 -1.137752 0.18553686 -1.0447655 -1.235213 0.5180386
-0.11399348 1.0662355 1.2955465 -0.27075282 -0.10423634 0.7212772 0.45633087 0.31856394
-2.9684327 -1.027801 -0.6578461 -2.0471406 0.33089077 -0.49844924 -0.119579054 -0.9405623
0.39926448 -2.3279161 0.66695154 -0.69452786 0.24249302 -0.23515843 0.60008764 0.1456636
-2.4104805 0.07117607 0.24073394 -1.1769882 1.2246064 0.7005753 0.35998583 0.12320121
-1.0626936 -0.34780538 -0.70044506 -1.4873259 -0.08461076 -1.0553279 -1.4197266 0.6761967
0.28013563 1.0218716 -0.41477415 -0.9871206 -0.37923664 1.1380111 2.001682 0.2040452
-1.3528011 0.42932528 -1.8146529 0.19555251 -0.9125099 -0.7528048 -0.092411235 0.62338597
-2.9751344 -0.09744601 -1.7615547 -1.7275244 1.7312319 -1.0267043 -1.4826379 0.0394567
-0.7732755 -0.26165336 -0.8038329 1.2729402 -0.23414627 -0.6056578 -0.8698422 -0.7214028
-0.19720711 -1.5024093 1.5236644 0.09606612 0.50468755 -1.5485871 0.7883074 -2.6325407
-0.3427871 -1.369017 -0.7943994 -1.0855612 2.4177 0.025634017 0.08336251 0.9566176
-1.5783272 0.34892678 0.26729074 -1.7313194 -0.49551564 -0.75119054 -1.0251756 -0.043170426
-1.0607853 1.2256429 -0.8216733 -1.9235095 0.047002606 0.6217593 -0.97897863 0.67890036
-1.0188384 -0.62350273 -0.7072368 -0.7885449 -1.0869125 -0.10258692 0.90943646 -2.0025225
0.4456217 -1.8615121 1.3215729 -0.9268086 0.22008777 -1.2001613 -2.2097993 -0.51712614
0.41609386 -1.6958156 0.01817666 -0.57785213 -0.4149423 -0.67164606 0.86213857 0.4344857
