param_nonquant/encoder.layers.3.conv.pointwise_conv1.bias.npy (npy, 1536 bytes, 1 tensors)

array f4 [352]
000000 8c 4f 0a 3f a6 6f cf bc cd 15 18 c0 70 42 1c 3f
       0.5402763 -0.025321793 -2.3763306 0.61038876
000010 83 88 c9 3e 0a 59 72 3f 68 2a 76 3b 28 20 c4 be
       0.39361963 0.9466711 0.0037561897 -0.38305783
000020 fb 2e 1c bf ab 56 71 be 9c 3c c6 3d ec b4 06 bf
       -0.61009187 -0.23568217 0.09679529 -0.52619815
000030 cf 89 8a be 33 98 1e 3f 90 56 29 3f 9e 03 84 bf
       -0.27058265 0.6195099 0.6614771 -1.0313604
000040 50 a6 61 bf de 8c 44 3f a6 49 af 3e ea d7 5e 3f
       -0.881444 0.76777446 0.34235877 0.8704821
000050 88 f6 e7 bf d1 01 28 3f e2 ea 32 3f fb 10 df 3e
       -1.812211 0.6562777 0.6988965 0.43567643
000060 d7 25 39 bd 2e 32 85 be 1d 9b 99 c0 04 51 de 3e
       -0.045202103 -0.26014847 -4.8001847 0.43421185
000070 c7 1c 4c 3e 4a 02 36 3f 20 94 81 bc cc 75 5a bf
       0.19932853 0.7109724 -0.015817702 -0.85335994
000080 30 47 10 3e f6 16 46 bc b6 89 4d bf 0e d2 cf 3e
       0.14089656 -0.012090435 -0.80288255 0.40589947
000090 df 2f d0 3e ce 08 7d 3f 4a cf b5 be 76 fb c5 be
       0.40661523 0.9884156 -0.35509712 -0.38668412
0000a0 c0 e3 0f 3e 98 48 ce 3d a6 c8 7f 3f 5a 3c 4d 3c
       0.14051723 0.1007244 0.9991554 0.012526596
0000b0 9b fd f7 3e d9 f0 04 c0 04 5d 00 bf 61 a1 36 40
       0.48435673 -2.0772002 -0.5014193 2.8535998
0000c0 ce 55 90 3d 92 52 87 be d5 32 99 3f 35 3f 3d bf
       0.07047616 -0.26430184 1.1968638 -0.7392457
0000d0 bc 00 b6 3f de b3 42 3f af fa f0 3e 78 6b 98 bf
       1.4218974 0.76055706 0.47066256 -1.1907797
0000e0 32 ec 56 bd af 6a 1f bf 0f d6 e8 be 3e 3b 75 3e
       -0.052471347 -0.6227216 -0.45475814 0.2394838
0000f0 68 17 ce 3f 7e d0 06 c0 23 72 07 c0 66 b0 33 3e
       1.6100893 -2.1064754 -2.1163414 0.1754776
000100 15 d4 3a bf f8 2e c3 3e 5a 5e 24 be 73 d2 32 bf
       -0.7297986 0.38121772 -0.16051617 -0.6985237
000110 52 39 21 3f d4 b9 ac 3e 13 ad 68 be 06 fe 29 c0
       0.6297809 0.33735526 -0.22722273 -2.6561294
000120 3b fc 8d 3f d1 23 3d be 00 c4 34 3f 1c 32 f7 3d
       1.10926 -0.18470694 0.7061157 0.120701045
000130 20 5c 3e 3f fa b4 68 be f1 e1 09 bf 2f 75 9d bf
       0.7435932 -0.22725287 -0.53860384 -1.2301387
000140 75 3c fa be b2 86 47 3f 2d e3 d9 3e 17 54 7c bd
       -0.4887425 0.77939904 0.42556134 -0.06160363
000150 cb d8 cd 3d 71 31 de 3e 21 d1 05 3f 44 ec 34 be
       0.100511156 0.43397096 0.5227223 -0.17668253
000160 3c 94 10 bf 2c 3e 41 40 1e 61 a2 3e 02 ef 15 40
       -0.5647619 3.0194197 0.3171472 2.3427129
000170 e0 ba 04 3e bc 16 6d bf 27 a8 06 bf 22 c3 9c 3f
       0.12961912 -0.92612815 -0.5260033 1.224705
000180 5c 78 8b bf c2 b3 37 3f cd 54 9b 3f c1 20 e1 3e
       -1.0896106 0.71758664 1.2135254 0.43970302
000190 67 99 26 3c 54 a4 3e 3f dc f9 32 bf 7d 49 07 3f
       0.01016841 0.74469495 -0.69912505 0.5284651
0001a0 00 10 94 3d 90 16 dc 3e a4 93 c4 3f 37 49 b1 be
       0.07229614 0.42985964 1.5357556 -0.3462617
0001b0 c1 fa ca be f9 d1 35 bf 88 09 94 3f f0 2a cb 3e
       -0.39644435 -0.7102352 1.1565409 0.39681196
0001c0 ce dd cb 3e 56 2a 90 be 28 0f a0 3e f9 8b ce 3f
       0.3981766 -0.281573 0.31261563 1.6136466
0001d0 35 9a 09 3f 14 d0 35 bf 1e b7 11 3e 0f 79 53 bf
       0.53750926 -0.7102063 0.1423001 -0.82606596
0001e0 ef 80 59 bf a3 a0 2c bf 36 3a c6 3e fa 4d c8 3e
       -0.8496236 -0.6743261 0.38716286 0.3912199
0001f0 43 d1 be 3f 16 ea 21 3f bc c6 58 be 16 7d 81 40
       1.4907612 0.6324781 -0.21169561 4.0465193
000200 56 f4 91 40 5a bc 64 3c 8e 92 e9 3f 2a 45 8b ba
       4.561076 0.013960922 1.824785 -0.0010625471
000210 3e 30 48 be dd 30 4c 3e 23 6b a6 be 67 ce 38 3f
       -0.19549653 0.19940515 -0.32503614 0.72189945
000220 d2 52 5e 3f ce 62 ba ba fd 44 39 3e 7d 86 8c be
       0.86845124 -0.001422012 0.18092723 -0.27446356
000230 54 b9 58 bf 64 2b 20 c0 2c a6 da 3b 46 a3 18 be
       -0.8465779 -2.5026484 0.0066726413 -0.14906034
000240 32 88 28 bf b6 9b a6 bf 86 10 e0 3f 84 7e ed 3f
       -0.6583282 -1.3016269 1.7505043 1.8554235
000250 7e 3e f0 be 23 d7 91 be d1 74 b2 be e8 44 94 3e
       -0.46922678 -0.2848445 -0.3485475 0.2895882
000260 1b 53 71 3e b6 60 8d bd 62 e2 3f 40 c8 1c 98 3b
       0.23566858 -0.06903212 2.9981923 0.004642103
000270 aa 6c d2 bd 8b 88 26 c0 33 43 3a be 12 67 db 3e
       -0.10274632 -2.602084 -0.18189697 0.42852074
000280 76 42 22 bf fc 73 3e 3f 38 1f 3b 3f 52 cf 61 3d
       -0.6338266 0.7439573 0.7309451 0.055129357
000290 46 84 d3 3e 3e 8b 31 3f 8d 0c 1e 3f 55 21 0a bf
       0.41311854 0.6935309 0.617379 -0.5395711
0002a0 e2 6a 75 3f d8 e0 10 bf b4 75 2d bf 0a 48 0c bf
       0.95866215 -0.56593084 -0.67757726 -0.5479742
0002b0 59 cb 27 be d2 93 f4 3f 75 f9 96 be c0 ae 6b bf
       -0.16386165 1.9107611 -0.29487196 -0.9206352
0002c0 df bf 93 3f 76 3b 83 3e de d6 1b 3f a1 7e 8c 3c
       1.154293 0.25631303 0.60874736 0.017150225
0002d0 10 1f 84 3f 45 d5 90 bf 2b 55 b1 bf 35 b4 7c bf
       1.032198 -1.1315085 -1.3854116 -0.98712474
0002e0 cd 95 79 bf 60 bd a5 bf 1d 05 bd 3d 60 f8 e4 3d
       -0.974942 -1.2948418 0.09229491 0.11180186
0002f0 8e fa 0f c0 b6 b6 5f bf 48 f6 0c bf 9c 3e a4 be
       -2.2496676 -0.8738817 -0.55063295 -0.32079017
000300 6c e4 35 c0 c2 34 9e 3f 4a 93 14 3f 6f b2 44 be
       -2.8420668 1.235985 0.58037245 -0.19208692
000310 44 72 36 3f 8b 8a 3c be fd a4 0c c0 ea 91 27 be
       0.71268106 -0.18412225 -2.19757 -0.16364256
000320 a5 05 79 bf 42 05 cc bf ed b3 14 3f 08 ca ed be
       -0.9727424 -1.5939105 0.58087045 -0.464432
000330 b1 20 bd bf 8a f2 e0 bf 08 68 5f bf 54 7a cc bf
       -1.4775602 -1.7574017 -0.87268114 -1.5974832
000340 88 61 bd be 1c c8 77 3f 3c 34 43 bf 3c 92 1a bd
       -0.36988473 0.9678972 -0.7625158 -0.037737116
000350 04 41 7f bf ff 37 06 bf 45 65 f1 be a7 87 d3 3e
       -0.9970858 -0.52429193 -0.47147575 0.41314432
000360 9e 2f ce 3e a6 8e 0b c0 5e 81 0f 3f 42 59 84 bd
       0.40270704 -2.1805816 0.56056774 -0.06462337
000370 7e dd 04 c0 a0 a7 93 be 14 df 9c 3f 33 90 b4 3f
       -2.0760188 -0.28838825 1.2255578 1.4106506
000380 12 ba b0 bd 18 8a 56 3f e1 35 36 bf f4 55 56 bf
       -0.0862924 0.83804464 -0.7117596 -0.83724904
000390 aa ee 70 bf 9b 57 b2 be 7a b5 39 3f 7d 4b 81 3f
       -0.9411417 -0.34832463 0.72542536 1.0101162
0003a0 be 60 de bf 6c 98 48 3e ee cd 46 3f c5 a1 14 be
       -1.7373273 0.19589394 0.77657974 -0.14514835
0003b0 6f 3e 68 bf ea b7 a0 bd 07 3f a2 3f 9f db 80 bf
       -0.90720266 -0.07847579 1.2675484 -1.0067023
0003c0 d1 d2 97 bf 9f 3b 83 bf 38 a2 a8 3f 54 2b 8b 3f
       -1.1861211 -1.025257 1.3174505 1.0872598
0003d0 ce 47 a1 3f 2e 42 f9 3f bd e7 99 bf a5 8b c9 3f
       1.2600038 1.9473321 -1.2023846 1.5745741
0003e0 d3 0c e5 bc e7 ce 9d be 48 7e 98 bf 8c 11 94 bf
       -0.027960217 -0.30821916 -1.1913538 -1.1567855
0003f0 1a 8a 84 bf 86 6e 9a bf c1 4d 89 bf b8 53 51 3f
       -1.0354645 -1.2064979 -1.0726854 0.8176837
