param_nonquant/encoder.layers.7.feed_forward1.linear1.bias.npy (npy, 2944 bytes, 1 tensors)

array f4 [704]
00000000: a4ce e33d 7079 bbbe eaa1 77be 9d02 df3d
00000010: 5103 69be df14 68be f700 77be dcd9 67be
00000020: 7e81 2fbe 4499 6dbe df44 dd3d 40f5 b6be
00000030: 8010 5bbf 33ef 87be 5f52 b2be 2ddf dabe
00000040: 22bc c2be e29a fdba 85e8 d3be 3125 20be
00000050: b7e3 6dbe e268 dcbe fb66 24bf d4cc 8bbd
00000060: 1560 3cbe 3426 9dbc 675a bbbe 4037 b7be
00000070: 7f3e 71be 20a4 f5bd d5ff 0a3d d3f8 4dbe
00000080: 6e35 ebbe 020e 1e3d ac94 a4bd 3c57 76bd
00000090: 18bc 9c3d 8c4c 663d 5ab5 fe3d 9bce 733d
000000a0: 5803 03be ffed bfbe 8a36 3dbf c2d6 c0be
000000b0: a4c9 82be 2173 e3be 1ad1 25bf 30f2 1abe
000000c0: db1e f2be 064b b9be a9bf 52bf 4b19 febc
000000d0: 9a93 98bd bd5f 11be 9cd1 17be 065f c5be
000000e0: 7795 943d 9f3d 44be b0f8 d0be 4daf 54be
000000f0: 5c41 8cbe f840 e2be 2856 a2bd 58f9 3fbe
00000100: 20e5 f7be 5ef4 88bb 4268 0dbd ce3d 7f3e
00000110: 361a 20bc dc66 afbe 9608 c2bd c255 a3be
00000120: 261e 11bf 23a5 923e 1dfe da3c 1e0c 74be
00000130: 2d88 5bbe f87e 8b3e 4ea8 15be af95 ebbe
00000140: b632 90be 90d0 d9be b6b6 34bf 1a50 3ebe
00000150: aa01 8abe 1fbc 72be b2aa 1dbf 5d42 d6be
00000160: e0f3 e8be 6e67 88bd cb32 c3bd a99a 5dbf
00000170: cc7b b3bc b36e 2dbd c706 0c3e 0067 a7be
00000180: 4a66 dfbe 1257 70bd cbc6 0ebf 5aab 9fbe
00000190: 1062 0cbf c0a3 013f 535b cdbe 165d dc3c
000001a0: 7816 333d 0a1e 17bf 0c4a 863d bea1 d53c
000001b0: 6e77 8cbe 8689 ebbd 49a7 01bf d68a 1fbf
000001c0: 0312 adbe 2032 9e3d b70f e4be 9f9f 1bbf
000001d0: ea4d f4be 67b2 a83d 626a dcbe 1316 0cbd
000001e0: 2bf4 193e 799f 5abe 7ca3 ddbe 1a60 0fbe
000001f0: aed6 c4bd 16ae d1be 6c64 38bf a24a 8b3e
00000200: f072 a53d 9043 8cbe 162d 00bf c824 ccbd
00000210: 6164 953e 53a7 5f3e d1b6 07bf d5a8 1abe
00000220: 5690 fbbe 696b a9bd 45a5 e9be cec0 ea3e
00000230: fcee e8be 273b 313d b0d1 85be 0ef1 2dbe
00000240: 4077 553e 6a11 403e 471b 6fbf 30bb eebe
00000250: 9bb3 dc3d 4deb 20be ab4a 44be e027 68be
00000260: 1ec3 5abe 0eeb 9dbe b0ec 803e d0ec 0cbf
00000270: 1e51 b4be 45ac 03bf 4587 22bf 32dc acbe
00000280: 59b1 debd c446 adbe 32b0 39be f8db 1abf
00000290: 124a 0e3f 84ff ffbd 6679 02bf bc30 5e3e
000002a0: ba9e 0b3e ec82 bcbd ee9c 16be 386d 8ebe
000002b0: a2f4 d23d 44c0 c4be 5010 363e 95f4 e7be
000002c0: 22bf 663d 4a8c 0cbe c05f 0dbf 1f8c e1be
000002d0: 7086 90be fb0c 253e 1435 a6be d6c0 46be
000002e0: 7a69 fbbd 1c15 c0be cbbf 12bf ea30 e3bc
000002f0: 92c0 20be 73e0 fbbb 070b 79bd 08b6 a3be
00000300: 4a94 903c a963 99be ac41 3dbe d61f 2d3e
00000310: 695f c8be 75e4 8cbe d32d a8bc ba7e 71bd
00000320: e8ce e9bc c6b8 82be 6bd9 afbd 654a 86be
00000330: 6d3d 8cbd 2333 15be 87ff 3fbe ed86 93be
00000340: 2a85 12bc 2d1e 363e e068 bdbd 8279 d4be
00000350: 0455 efbe afec 88bd 8e44 833e ecb4 05bd
00000360: c83c 20be b68e 0ebf 5d4c 84be c406 bbbe
00000370: 20c2 acbe 8277 febe a6e1 d73d ee41 aebe
00000380: f647 6ebe e6ca 3a3e 5812 f5be 680b 4cbe
00000390: b674 a0be 4417 66be f6ae 3cbf e822 7abe
000003a0: f201 2ebf 56f8 0dbf 9b75 09bf 638a 5cbf
000003b0: 8c0e 0f3e feee 85be 26b1 59be dc3a 0abe
000003c0: 6d20 f73d e6e6 fdbe 2ad6 45be 1889 aabe
000003d0: ac3d 963d 0532 b3be 9dbb 9fbe ce3a 72be
000003e0: 19cd 0bbe e289 51be 1574 d2bd bfe7 a9be
000003f0: dbc0 393e c3ee 96be 500e 73be 8340 103e
0.11123398 -0.36616087 -0.24182859 0.1088917 -0.22755171 -0.22664212 -0.24121462 -0.226417
-0.17139241 -0.23202997 0.10804152 -0.35733986 -0.8557205 -0.26549682 -0.3482847 -0.42748395
-0.3803416 -0.0019348527 -0.41388336 -0.15639187 -0.23231398 -0.4304877 -0.64219636 -0.06826177
-0.18396027 -0.019183256 -0.3659241 -0.3578434 -0.23558997 -0.11994195 0.033935387 -0.2011445
-0.459392 0.038587578 -0.080361694 -0.060141787 0.076530635 0.056225345 0.12436934 0.059523206
-0.12794244 -0.37486264 -0.73911345 -0.37663847 -0.25544465 -0.44423774 -0.6477219 -0.1513145
-0.47289166 -0.3619005 -0.823237 -0.03101792 -0.07450028 -0.14196678 -0.14826053 -0.3854906
0.07255071 -0.19164132 -0.40814734 -0.20769997 -0.27393615 -0.44190192 -0.07926589 -0.18747461
-0.48416996 -0.0041795215 -0.034523256 0.2492592 -0.009771874 -0.34258163 -0.09474294 -0.31901366
-0.5668663 0.28641614 0.026732499 -0.23832747 -0.21438666 0.27245307 -0.14614984 -0.46012637
-0.2816369 -0.42541933 -0.70591295 -0.18585244 -0.26954395 -0.23704575 -0.61588585 -0.41847506
-0.45498562 -0.06660353 -0.09531172 -0.8656412 -0.021909617 -0.0423419 0.1367446 -0.3269577
-0.43632728 -0.058676787 -0.55772084 -0.31185418 -0.5483713 0.5064049 -0.40108737 0.026899856
0.0437226 -0.5903021 0.06557092 0.026078101 -0.27434868 -0.1150084 -0.5064588 -0.6232122
-0.33802804 0.07724404 -0.4454324 -0.6079044 -0.47715694 0.082371525 -0.43049914 -0.03420074
0.15034549 -0.21349896 -0.4328879 -0.14001504 -0.096112594 -0.4095313 -0.7202823 0.27205378
0.08078563 -0.27395296 -0.50068796 -0.09967953 0.29178146 0.21841173 -0.5301333 -0.15103467
-0.49133557 -0.0827244 -0.45633903 0.45850223 -0.4549483 0.043269303 -0.2613654 -0.16986486
0.20846272 0.18756643 -0.93400997 -0.46627188 0.107764445 -0.1571476 -0.19169109 -0.22671461
-0.21363494 -0.30843395 0.25180578 -0.5504885 -0.35218138 -0.5143474 -0.63487655 -0.33761746
-0.1087367 -0.33843052 -0.1813362 -0.60491896 0.5558177 -0.124999076 -0.5096649 0.21698278
0.13634768 -0.09204659 -0.14708301 -0.27817702 0.10300566 -0.38427937 0.1777966 -0.4530379
0.056334622 -0.13725391 -0.5522423 -0.44052216 -0.28227568 0.16118233 -0.3246237 -0.19409499
-0.122759774 -0.37516105 -0.573239 -0.027733285 -0.1569846 -0.0076866685 -0.060801532 -0.31974816
0.017648835 -0.29958847 -0.18482083 0.16906676 -0.39135292 -0.2751805 -0.020529663 -0.058958746
-0.028541043 -0.25531596 -0.08586391 -0.26228634 -0.068476535 -0.14570288 -0.1874982 -0.28813878
-0.008942882 0.17784949 -0.09248519 -0.41498953 -0.4674455 -0.06685769 0.2563824 -0.032643244
-0.15648186 -0.5568651 -0.2583951 -0.365286 -0.33741856 -0.49700552 0.10541086 -0.34034675
-0.23269638 0.18241462 -0.47865558 -0.19926226 -0.31339043 -0.22469813 -0.7370447 -0.24427378
-0.6797172 -0.55457056 -0.53695077 -0.8614866 0.13970393 -0.261589 -0.21258983 -0.13499016
0.120667316 -0.49590224 -0.19319978 -0.3330772 0.07335982 -0.349991 -0.31197825 -0.23655245
-0.13652457 -0.20462754 -0.10276047 -0.3318462 0.18139975 -0.29479036 -0.23735929 0.1408711
