param_nonquant/encoder.layers.1.self_attn.linear_q.bias.npy (npy, 832 bytes, 1 tensors)

array f4 [176]
000000 4a 5f a9 be 9a 2a 0b be ea 86 05 3f 5d 6f 07 bd
       -0.33080512 -0.1359047 0.5215899 -0.03306519
000010 ec af 00 3f 08 72 e2 3c 9c 32 25 3e b8 d3 63 bd
       0.50268435 0.027642265 0.16132587 -0.055621833
000020 fe 7b db 3c 5e 50 ab bc a1 f5 42 3c 6a ee 9e bd
       0.026792523 -0.020912345 0.011899383 -0.077603176
000030 52 be ea 3e 37 2c fb bb 18 e5 0c be 23 dc 30 be
       0.45848328 -0.007665183 -0.13759267 -0.17271475
000040 35 fc 67 be 00 48 98 bd f9 7d cf 3c 98 70 11 bd
       -0.22654803 -0.07435608 0.025328623 -0.03550777
000050 ad 3a 3a 3d ea ad 6e 3d 11 34 2c 3d 6e 05 ec bd
       0.045466114 0.058271326 0.042041842 -0.11524473
000060 64 ae 93 3c 88 94 e0 bd e0 e6 81 bc f0 26 57 bd
       0.018027492 -0.1096583 -0.01585716 -0.052527368
000070 ea 9d 80 3d fc dc db 3b df ec 07 3d ad d6 0d 3e
       0.0628012 0.006709693 0.033184882 0.13851424
000080 81 65 2a 3c d6 58 4c 3d c0 69 e2 3c 01 fb b6 3c
       0.010400177 0.049889408 0.027638316 0.022336485
000090 be 81 e7 3c ee df 8d 3c 57 25 b2 3d e0 f4 e8 3d
       0.028260108 0.017318692 0.08698528 0.11374831
0000a0 f8 18 5f bd 1a 57 ac 3d f6 13 80 3c 4b fb 9b bd
       -0.05446717 0.08415051 0.015634518 -0.0761629
0000b0 2b f1 bc bd c1 b7 4e bc e4 9d 7a bd 67 4f ae 3d
       -0.09225687 -0.0126170525 -0.061185732 0.085112385
0000c0 6a 06 a9 bc 00 85 4b 3d 96 02 15 3c cc 50 92 bd
       -0.020632941 0.049687386 0.009094855 -0.07144317
0000d0 41 04 ef 3b 76 e5 d3 bc 9b 80 b5 3c 83 bb 77 bc
       0.0072942083 -0.025866251 0.02215605 -0.01512039
0000e0 e9 51 5d 3d 80 e2 86 3d 90 58 69 bd d9 35 ef 3d
       0.054033194 0.0658617 -0.056969225 0.116801925
0000f0 a6 70 ed be 2c 4a c6 bc 48 1b 18 3d 9c d6 b5 bb
       -0.46375006 -0.02420529 0.037135392 -0.005549265
000100 e8 ef 44 bd 32 03 50 3b 24 f7 0c 3e 76 7b b1 bc
       -0.048080355 0.0031740186 0.13766152 -0.021665316
000110 a2 34 92 ba b1 d5 8a 3d 61 5a 56 3d 44 e7 49 3a
       -0.0011154602 0.0677904 0.052332286 0.0007702003
000120 5b 45 0d 3d 12 8a cf bc 12 dc c5 bd 02 06 5b 3d
       0.03448997 -0.025334392 -0.09661116 0.053472526
000130 a0 32 11 be fc d2 8f bc a2 f5 15 bb d5 5f 43 3f
       -0.14179468 -0.01755666 -0.0022882004 0.76318103
000140 3c b3 19 bd 3b e4 5a 3b 1e e0 e1 3c 2d 3e aa bc
       -0.037524447 0.0033400196 0.027572688 -0.0207816
000150 ec b4 11 bf 1f c0 60 bd d1 15 94 bd 9e 5a c3 3d
       -0.5691669 -0.05487072 -0.07230724 0.09538768
000160 22 a5 88 bd 61 89 c0 bd cd 89 90 bd f8 34 04 3d
       -0.066721216 -0.09401203 -0.070575334 0.032277077
000170 d1 6b ce bd 94 e0 38 3d 5e fd b4 3c b8 eb d3 3c
       -0.10079158 0.04513605 0.022093471 0.025869235
000180 a4 80 30 be 86 b8 9d 3d d4 0f 27 bd 44 ef 5f 3b
       -0.17236573 0.07701211 -0.04078658 0.0034169713
000190 d0 94 78 3c aa bf 0b 3d 40 5b a4 3d 0a 13 a9 3c
       0.015172198 0.034118332 0.08025217 0.020638961
0001a0 88 ff 53 bd 28 35 74 3d 1d e0 2b 3c 19 f6 01 3e
       -0.051757365 0.059621006 0.0104904445 0.12691535
0001b0 92 a4 aa 3e df e0 3e bd 16 72 6a be d4 12 3b bc
       0.33328682 -0.046601173 -0.22895083 -0.011418063
0001c0 c0 04 f0 bd 16 a0 54 bd 69 53 ff 3c a6 9a ae bc
       -0.11719656 -0.051910482 0.031167703 -0.021313976
0001d0 00 e7 81 bb b8 a1 45 bc 3f 49 b9 be 1c b9 0b bf
       -0.003964305 -0.012062483 -0.36188695 -0.5457933
0001e0 3a 01 95 bd 54 b0 a8 bd 2d 50 64 3d 64 a1 cb 3b
       -0.072756246 -0.08236757 0.055740524 0.0062143076
0001f0 cc 0c 33 bd 39 45 8d bc 41 2c e5 bc 94 59 83 3c
       -0.043713376 -0.017244922 -0.027975203 0.016033925
000200 a6 af 53 be 9a 72 92 be 9b 46 42 bd ee 51 0e bc
       -0.20672473 -0.2860306 -0.047430616 -0.008686526
000210 f9 bf 35 be ae c6 ea 3c 00 97 44 3e 83 e0 8e 3c
       -0.17749013 0.028659191 0.19198227 0.01744104
000220 0f 39 a0 bd 68 1d 9c bd e8 f6 09 bd 41 d0 08 be
       -0.07823383 -0.07622796 -0.033682734 -0.13360693
000230 e6 00 9a 3d 11 3e b9 bc b4 3c 37 bc 7a ea 72 bd
       0.075197026 -0.022612603 -0.011183906 -0.059305646
000240 82 44 80 3e 78 f7 61 3d 3c 9d 8a be 8c 31 07 3d
       0.25052267 0.055167645 -0.27073085 0.033006236
000250 00 cb 4f 3e be f7 8f bd 26 5e 88 bc fb f4 2c bd
       0.20292282 -0.07029675 -0.016646456 -0.04222582
000260 38 47 35 3e 74 5a 9c 3c 12 ef 9a bc f6 42 53 3d
       0.17702949 0.0190861 -0.018912826 0.05157753
000270 41 72 14 3d 45 bb 46 3e d1 2a 4c be d2 f9 1a 3e
       0.036241774 0.19407375 -0.19938208 0.15134361
000280 17 73 b3 bd c9 85 08 3e b4 cc 17 bc 6c fb f2 3d
       -0.08762186 0.13332285 -0.009265114 0.11864361
000290 d9 5d 7d 3d 70 b7 19 3c d6 32 9c bd f5 80 1a 3d
       0.06185708 0.009382114 -0.07626884 0.03772064
0002a0 51 79 e5 3d 5c 4e b4 3d 78 3d 86 3d 6a f1 1a bd
       0.1120478 0.08804008 0.06554693 -0.037827887
0002b0 82 d5 21 3d 80 d2 08 3e 36 9d 15 bd a8 01 cf 3e
       0.039510258 0.1336155 -0.03652688 0.4043095
