param_nonquant/encoder.layers.14.self_attn.linear_out.bias.npy (npy, 832 bytes, 1 tensors)

array f4 [176]
0.1919059 -0.34225124 -1.1393114 0.65016407 -0.26498878 -0.84365404 -0.0835912 0.43186373
-0.6954696 -0.08853739 -0.04088287 1.0143292 -0.4922241 0.3756317 -0.02310062 -0.23132169
-0.6429939 0.19556929 -0.5998868 0.7702279 0.31554788 0.21971169 -0.06311228 0.7432045
0.44747233 0.16102242 0.2705385 0.672002 0.21788515 0.15545583 -0.022701811 -0.645666
0.10819112 0.4826961 0.2525759 -0.5977858 0.22056492 0.17485642 -1.0710276 -0.06572078
-0.034450304 0.6060474 0.3231466 0.73355055 -0.34568465 -0.18562116 0.78757644 0.5785092
-0.656906 -0.31186092 -0.25721604 0.113324225 -0.18655504 0.09070009 0.1978963 -0.008020016
0.41791165 -0.010560663 0.18617983 0.32957047 -0.19962256 0.50493085 0.3353254 -0.465402
-0.74655586 0.22729114 -0.010670206 0.015610015 -0.020449258 -0.14366683 -0.24822451 0.15824829
-0.044295583 1.4548786 -1.1781809 -0.20072493 -0.34017825 0.10278928 -0.44440833 -1.1412804
-0.33710623 0.37836334 0.41583502 0.87246543 0.28907582 -0.35314536 0.14058441 -0.2548775
0.17940748 0.71190596 0.5266566 -0.2691783 0.048520517 0.00037146715 -0.6570971 -0.095496066
0.11818239 -0.17948294 -1.1164076 0.3493165 -0.30341566 0.26153392 -0.57380277 -0.5055684
-0.031945895 0.5415731 0.68836975 1.1888154 -0.2150333 0.11316627 -0.14108051 0.40496212
0.14191635 0.45702052 1.0038253 0.12213583 -0.21591407 -0.23897663 -0.10413834 -0.92410207
0.8066291 -0.25631478 0.15032442 -0.38491207 -0.2587758 -0.19255348 -0.21168911 -0.5265479
-0.5804393 -0.13417144 0.48532566 0.1630522 0.6136352 -0.31070974 0.06544039 -0.65660805
1.2330096 -0.23429327 0.08654064 0.06510614 -0.32241872 -0.75961244 -0.15055576 -0.55811775
-0.4226769 0.51593065 -0.68373245 -0.3917711 0.52447295 -0.03280382 0.29283813 -0.15434606
-0.032930404 0.085496515 -0.4788589 -0.015358775 0.30969447 0.21996157 -0.40405178 -0.047638316
-0.24787726 0.74131715 -0.11585721 -0.063245684 -0.5315114 -0.6869746 -0.7223713 0.7166711
0.10515186 -0.20140229 1.2843914 0.18724269 0.03533958 -0.01428213 -0.07797643 -0.5046798
00000000: fb82 443e 8e3b afbe f5d4 91bf 2771 263f
00000010: 9cac 87be b6f9 57bf dd31 abbd 3e1d dd3e
00000020: 4c0a 32bf 1753 b5bd cc74 27bd 8ad5 813f
00000030: cc04 fcbe cc52 c03e 833d bdbc 98df 6cbe
00000040: 409b 24bf 5143 483e 2e92 19bf a82d 453f
00000050: 7e8f a13e 1afc 603e 0341 81bd a642 3e3f
00000060: 181b e53e 10e3 243e 0684 8a3e 5308 2c3f
00000070: 491d 5f3e d02f 1f3e 26f9 b9bc 5e4a 25bf
00000080: 4e93 dd3d f123 f73e a151 813e 7d08 19bf
00000090: c5db 613e 900d 333e 6f17 89bf 9e98 86bd
000000a0: c31b 0dbd ec25 1b3f 7973 a53e f8c9 3b3f
000000b0: 94fd b0be 7913 3ebe 9c9e 493f 2e19 143f
000000c0: fe2a 28bf 3cac 9fbe d2b1 83be 8816 e83d
000000d0: 4908 3fbe f8c0 b93d 54a5 4a3e 6366 03bc
000000e0: 84f8 d53e a206 2dbc eda5 3e3e 76bd a83e
000000f0: db69 4cbe 2643 013f c5af ab3e 2c49 eebe
00000100: 491e 3fbf 02bf 683e 16d2 2ebc 26c1 7f3c
00000110: 3485 a7bc 661d 13be 912e 7ebe d70b 223e
00000120: 496f 35bd 7639 ba3f a2ce 96bf d68a 4dbe
00000130: d82b aebe 3083 d23d 7d89 e3be 7a15 92bf
00000140: 3099 acbe d7b8 c13e 54e8 d43e e559 5f3f
00000150: bf01 943e 78cf b4be 5cf5 0f3e 4e7f 82be
00000160: 98b6 373e 783f 363f f8d2 063f bdd1 89be
00000170: 73bd 463d 7ac1 c239 8437 28bf 7193 c3bd
00000180: 9c09 f23d 60ca 37be 72e6 8ebf 9dd9 b23e
00000190: 4c59 9bbe c6e7 853e bde4 12bf ee6c 01bf
000001a0: b3d9 02bd 89a4 0a3f 0039 303f 1a2b 983f
000001b0: b031 5cbe b8c3 e73d 6977 10be 3257 cf3e
000001c0: 8552 113e 98fe e93e 597d 803f 5a22 fa3d
000001d0: 9418 5dbe 4ab6 74be 7b46 d5bd f491 6cbf
000001e0: 3f7f 4e3f b13b 83be a5ee 193e 3213 c5be
000001f0: 437e 84be bd2c 45be 08c5 58be d8cb 06bf
00000200: ac97 14bf 3d64 09be 9b7c f83e 28f7 263e
00000210: 3217 1d3f 5915 9fbe 9c05 863d 7717 28bf
00000220: 42d3 9d3f 93ea 6fbe 383c b13d 5e56 853d
00000230: 1114 a5be f675 42bf 4a2b 1abe cee0 0ebf
00000240: 1b69 d8be 0814 043f 1709 2fbf 3996 c8be
00000250: dc43 063f 4c5d 06bd e1ee 953e e50c 1ebe
00000260: 08e2 06bd cc18 af3d fe2c f5be 5fa3 7bbc
00000270: 4690 9e3e 9b3d 613e e0df cebe 6520 43bd
00000280: 89d3 7dbe f6c6 3d3f 8b46 edbd f486 81bd
00000290: 2211 08bf 91dd 2fbf 53ed 38bf c277 373f
000002a0: dc59 d73d 673c 4ebe f066 a43f 8cbc 3f3e
000002b0: 3cc0 103d 98ff 69bc 1bb2 9fbd b232 01bf
