param_nonquant/encoder.layers.10.norm_out.mod.bias.npy (npy, 832 bytes, 1 tensors)

array f4 [176]
0.83326715 1.0543799 7.3180046 0.5669387 1.0658906 1.952482 -0.18700913 -0.70363176
-0.8500712 -0.27884474 1.6668735 -0.3696293 0.1300553 0.640628 1.7165234 0.31747767
0.112827316 0.6480667 0.30327818 0.046699066 -0.4460889 -0.22346672 0.36547804 1.0338634
-0.97101444 -0.47914016 0.8940292 -0.76008457 -1.1415766 0.6634186 1.6101556 -0.17396633
0.4429639 1.403573 -0.43866658 0.5781244 0.18773302 -3.0526042 0.5280587 0.4721688
0.6827214 0.8839974 -0.96390903 1.8446455 -0.52329266 2.0222325 -1.029794 0.56849205
-0.7585725 -0.82831603 2.6487522 0.23224822 1.6875644 0.1373481 1.3518007 -2.5972786
-0.23836803 -0.85236925 -0.23235261 7.2608867 -1.1066835 -0.13775991 0.08960255 0.57943094
2.133532 -2.3399873 1.7319661 -0.507398 -0.29255533 0.008443734 0.87099284 -0.941764
0.31132042 0.9125328 0.9682234 -1.027188 -1.6463232 0.62355995 -0.6476464 0.5191803
1.4816718 -2.1300902 0.8869419 -1.2033224 1.5948501 -0.015894962 -3.343522 -0.6092942
0.7225927 0.65836394 0.8999545 1.0594108 -0.8525151 1.2235618 -0.26751095 -0.37099323
-0.685611 0.06800508 1.206296 1.747781 -0.47947392 -0.43416184 -0.3022115 0.9776207
0.3189606 -1.6961231 -1.2912419 -1.9005868 -2.0154624 0.03203098 1.002178 1.1685715
-0.4517713 1.0313916 -1.4818348 0.300859 2.2939758 1.4066792 -0.16918439 -2.2000103
-0.6460109 1.5204339 2.0214458 0.56447697 1.3779533 0.29887843 0.787882 -0.05963778
1.4833342 0.7263557 0.10281934 -2.2627854 -0.06153396 1.0267539 -1.1610198 -1.0312848
-10.596627 0.039537396 -4.289206 0.49255762 0.38208824 0.41946682 -0.39573333 -0.25307488
2.167704 1.9473404 -0.0018030301 0.11872417 0.15401435 1.0475243 -0.8626435 0.07288278
-2.7022226 -0.11560576 1.2751935 -1.9015591 0.85218227 1.2590792 -0.8169203 -1.5537643
0.207142 -2.6547084 -0.15582499 -2.511936 0.6516436 0.14149503 -1.1524299 1.0872644
0.67783535 -0.045531444 -11.13585 0.517243 -0.27426147 0.28605282 -0.7335597 1.2239096
00000000: ff50 553f ecf5 863f 182d ea40 e522 113f
00000010: 1a6f 883f eeea f93f 527f 3fbe 3621 34bf
00000020: 449e 59bf bdc4 8ebe 1c5c d53f 0d40 bdbe
00000030: 372d 053e 3200 243f 0ab7 db3f 6f8c a23e
00000040: 0212 e73d b3e7 253f 4747 9b3e 8547 3f3d
00000050: c465 e4be 76d4 64be f01f bb3e a355 843f
00000060: 6794 78bf dc51 f5be 19df 643f e794 42bf
00000070: 2f1f 92bf cdd5 293f 9419 ce3f 3b24 32be
00000080: 2acc e23e 48a8 b33f e898 e0be f6ff 133f
00000090: 163d 403e de5d 43c0 db2e 073f 1cc0 f13e
000000a0: d4c6 2e3f a74d 623f bec2 76bf 581d ec3f
000000b0: 82f6 05bf 426c 0140 4ad0 83bf b288 113f
000000c0: cf31 42bf 850c 54bf 2885 2940 7ad2 6d3e
000000d0: 1c02 d83f fba4 0c3e ce07 ad3f d039 26c0
000000e0: c016 74be df34 5abf d8ed 6dbe 2f59 e840
000000f0: cea7 8dbf ef10 0dbe 8b81 b73d 9655 143f
00000100: ca8b 0840 5ac2 15c0 11b1 dd3f d6e4 01bf
00000110: d0c9 95be 9657 0a3c 63f9 5e3f 7217 71bf
00000120: 6465 9f3e c09b 693f 7ddd 773f e57a 83bf
00000130: b8ba d2bf a0a1 1f3f 28cc 25bf 00e9 043f
00000140: 6ca7 bd3f 6653 08c0 a00e 633f 7806 9abf
00000150: 0c24 cc3f 2736 82bc 44fc 55c0 b4fa 1bbf
00000160: d6fb 383f 8a8a 283f 6b63 663f c69a 873f
00000170: 6e3e 5abf ac9d 9c3f 32f7 88be d3f2 bdbe
00000180: 3484 2fbf 3f46 8b3d e867 9a3f 4ab7 df3f
00000190: 9b7d f5be 764a debe 77bb 9abe 5a45 7a3f
000001a0: ce4e a33e 901a d9bf 6a47 a5bf 6e46 f3bf
000001b0: 56fd 00c0 eb32 033d 5e47 803f c093 953f
000001c0: 914e e7be a404 843f c3ac bdbf 310a 9a3e
000001d0: 80d0 1240 100e b43f ac3e 2dbe f8cc 0cc0
000001e0: f860 25bf 949d c23f 5e5f 0140 9081 103f
000001f0: c660 b03f 9806 993e a2b2 493f bf46 74bd
00000200: e5dd bd3f 72f2 393f f292 d23d 7ad1 10c0
00000210: 090b 7cbd ac6c 833f 4c9c 94bf 2401 84bf
00000220: c98b 29c1 f7f1 213d 2d41 89c0 8330 fc3e
00000230: 12a1 c33e 5bc4 d63e 8f9d cabe 0893 81be
00000240: aabb 0a40 7342 f93f a753 ecba a825 f33d
00000250: f0b5 1d3e 4715 863f 34d6 5cbf 9143 953d
00000260: 37f1 2cc0 b6c2 ecbd 8a39 a33f 4a66 f3bf
00000270: 9e28 5a3f 8229 a13f b021 51bf c0e1 c6bf
00000280: 081d 543e bee6 29c0 9690 1fbe 8fc3 20c0
00000290: 1dd2 263f 13e4 103e d382 93bf 7b2b 8b3f
000002a0: 9e86 2d3f 2e7f 3abd 712c 32c1 0a6a 043f
000002b0: 006c 8cbe 8475 923e 92ca 3bbf 12a9 9c3f
