param_nonquant/encoder.layers.7.feed_forward2.linear1.bias.npy (npy, 2944 bytes, 1 tensors)

array f4 [704]
00000000: a860 313e 6972 aebe 6ac0 98bd cc0f c6be
00000010: 87e1 e1be 1528 ce3d 4989 e6be 5a8e 16be
00000020: 6cde 15bf c636 bfbc dd87 01bf e1f4 4cbe
00000030: d655 14be bd88 b3be 40ff 5abe 1d8d bfbe
00000040: 6e01 2fbf fc75 0abf 203d 04bf cf79 35bf
00000050: dd59 a4be af9a e2bd edaf b6be 4af1 df3e
00000060: 363c 81be f9d0 96be 409d ddbe 248f 963e
00000070: d3d4 9ebe 82fa 7abe ac0e 5e3e 9108 483d
00000080: 1c93 1dbb 0613 a4bd 2073 173e 8131 44bf
00000090: 7ebc 85be 144c e1bd 502f 75be 8442 0fbf
000000a0: ca53 5cbf f158 f7be 821c 5abf f3ba 10bf
000000b0: f24f f1bd 6acf a93e 286d 70be 3206 10bf
000000c0: 1481 92be 90b6 f3bd 68c9 0cbf 8a9a 59bf
000000d0: 4066 bc3d d79c 52be 1468 18be 72d4 253e
000000e0: b882 9ebe 70d7 abbe 162d 563e 5cc0 c1bc
000000f0: ee9f 8cbe 87aa 1d3d 7c9a ddbe 8293 b3be
00000100: 3487 d0be 3921 a8be cdb2 74be 97cf bebe
00000110: 78ce ecbe 7da2 34bf 72d3 e8be b330 04bf
00000120: bc58 43bf 7e9e 97be c736 673d 9336 f6be
00000130: 8827 d2be 9a6f c5be cfbf 9bbe ce3e d3be
00000140: 987b 88bd ee81 0bbf dc35 41bf 0282 7abf
00000150: 13cc e03c 98ca 96be 4407 2ebe f58d 26be
00000160: 1e47 7abe b5f2 1abf e278 373c f295 81be
00000170: 62d8 20be 1f50 053e 14e0 14be 5e56 83bd
00000180: 2de8 c73e 1ad7 933e 3a71 a0be 8c91 ebbe
00000190: d27f 883d 3420 4b3d c4b5 f43c 8074 84be
000001a0: 7b87 32be ab2c 7dbf 7b74 47be d7ef 55be
000001b0: acd0 b3be ba2c 1fbd 2bab 4ebe ad37 00bf
000001c0: a78f 08bf b45c ecbd d6e8 c3bd f16b 60be
000001d0: 6841 e3bd 1852 bebe a8cb b7be 7430 ad3c
000001e0: 1e52 59be 21e1 30be 278e 303f 240f 46be
000001f0: 5155 093d 8180 24be 8a12 8f3c 2495 6bbe
00000200: a460 1bbe d270 f6be 4a37 03bf 9e4f f7be
00000210: ad3b cbbe 3eb1 d6be f560 9dbe e6bf d0be
00000220: 945d 99be ba80 d3be 7e76 62be bc5d 64be
00000230: 6c62 77be 24d0 ab3d 693e 93bd 6432 2cbf
00000240: 7292 82be c429 fcbe 7d99 48bf ad5b 40be
00000250: 8968 1abf 3783 37be 1a03 553e f8c7 aabe
00000260: 6e70 89bc bb20 27bf 3a19 0c3c b623 663d
00000270: 7162 06bf a2ed 18bd 0775 ad3d e499 20be
00000280: b12f 35bd 5c08 1fbf 17ee e7be d757 16be
00000290: 80ec 14bf c88a 96bc 6b9d 923c d178 14bf
000002a0: ba7b 34be 846a b4be 689e d4be 7959 05bf
000002b0: a8e2 32bf ecf6 85be 3e56 00bf 7bc6 ebbd
000002c0: 2890 46bf f1b1 d1be b8fd 6abd a4ed 1abf
000002d0: 0dbd 89be 3277 88be 9247 a9be de31 e5be
000002e0: 302a 17be a88e 79bd c2f7 42bf b5e5 c3bd
000002f0: 4898 0dbf 5b68 2a3e ba51 193e d4e4 89be
00000300: 5332 58bf d4e1 6bbe 3968 03be 902f a2bc
00000310: 9eb3 d8bd 9161 cfbe ae71 ad3d 8cd1 d4bc
00000320: 3e03 17bf 6196 09bf 6118 adbe c86f 5abd
00000330: 8e25 803e 184d 753d 60c0 d2be 4a49 15bf
00000340: 3804 993d 4b21 0cbf 73c4 e8be a3b5 1ebf
00000350: 734f cabe 8a6a a9be ed1a 2fbe 7899 fbbd
00000360: 0369 16bf a4e9 bebe b23c d33d 8e4d b0be
00000370: 1418 47be 9b49 99be 5031 70be 6cd8 63be
00000380: f6fd 12bf fce4 74be 51fb fb3c 9052 3bbf
00000390: 551f c7be 4c5c 78be 6f6b e93d ec93 cabd
000003a0: 0958 fdbd e288 65be be82 8dbf 1c75 c9be
000003b0: 3e95 4abf 00ff 91bf 5640 7cbe 2050 4abe
000003c0: 3cec 3a3e 1d52 3dbe 6ace 923b e718 f9bd
000003d0: d8cc 5d3e 971c a5be ee3e 85be 28ae 7bbe
000003e0: 4926 9b3e f11d ebbe 82d3 0dbe bf04 19bf
000003f0: b3ff f1be 9961 013e cf9d a53e 2811 14bf
0.17322028 -0.34071663 -0.07458575 -0.38683927 -0.44117376 0.10066239 -0.45026615 -0.1470274
-0.58542514 -0.023341548 -0.50597936 -0.20015289 -0.14485869 -0.3506526 -0.21386433 -0.37412348
-0.68361557 -0.5408628 -0.5165577 -0.7088899 -0.3209981 -0.1106466 -0.35681096 0.43738776
-0.2524125 -0.29456308 -0.43284035 0.29406083 -0.31021747 -0.24509624 0.21685284 0.048836295
-0.0024043983 -0.08011441 0.1479001 -0.76638037 -0.2612037 -0.11000839 -0.2394383 -0.5596087
-0.8606535 -0.48310044 -0.8519975 -0.5653526 -0.117828265 0.33166057 -0.2347914 -0.56259453
-0.28614104 -0.119000554 -0.5499482 -0.8500143 0.0919919 -0.20567642 -0.14883453 0.16194323
-0.30959105 -0.33562803 0.20915636 -0.023651294 -0.27465767 0.038492706 -0.43281925 -0.35073477
-0.40728152 -0.32837847 -0.23896332 -0.37267753 -0.46251273 -0.7056044 -0.4547382 -0.5163681
-0.7630727 -0.29613107 0.056448724 -0.48088512 -0.41045785 -0.38561708 -0.30419776 -0.41258854
-0.06664199 -0.5449513 -0.7547281 -0.97854626 0.02744106 -0.29451442 -0.16994959 -0.1626509
-0.24441192 -0.6052659 0.011198254 -0.25309712 -0.15707543 0.13018845 -0.14538604 -0.064129576
0.39044324 0.28875047 -0.31336385 -0.4600948 0.06665005 0.04959126 0.029871829 -0.25870132
-0.17434494 -0.9889628 -0.19478028 -0.20892273 -0.35120142 -0.038861014 -0.20182483 -0.50084955
-0.53344196 -0.11541119 -0.09565894 -0.21916176 -0.110964596 -0.37172008 -0.35897565 0.021141268
-0.21222731 -0.1727338 0.6896691 -0.19341713 0.03352863 -0.16064645 0.017464895 -0.23006111
-0.15173584 -0.4813295 -0.5125624 -0.4830293 -0.39693967 -0.419321 -0.30738035 -0.40771407
-0.29954207 -0.41309148 -0.22115514 -0.22301382 -0.24158639 0.08389309 -0.07189638 -0.6726439
-0.25502354 -0.49250615 -0.78359205 -0.18784972 -0.6031576 -0.17921148 0.20801964 -0.3335569
-0.016777243 -0.6528432 0.008550936 0.0561864 -0.5249396 -0.037336 0.08469587 -0.15683705
-0.044234935 -0.6212213 -0.45298836 -0.14681946 -0.5817337 -0.018376723 0.017897328 -0.5799685
-0.17625323 -0.35237515 -0.41527104 -0.5208965 -0.698771 -0.2616495 -0.50131595 -0.115124665
-0.77563715 -0.4095607 -0.05737087 -0.6051886 -0.26902047 -0.2665344 -0.33062416 -0.44764608
-0.14762187 -0.060927063 -0.761593 -0.095652975 -0.5531049 0.16641371 0.14972582 -0.26932395
-0.8445179 -0.23035365 -0.12832727 -0.01979807 -0.10581134 -0.40504125 0.08468948 -0.025978826
-0.5898932 -0.53745085 -0.33807662 -0.05332926 0.25028652 0.059887975 -0.41162395 -0.58314955
0.07471508 -0.547383 -0.4546238 -0.61995906 -0.3951374 -0.33089095 -0.17100115 -0.12285131
-0.58753985 -0.3728763 0.10314311 -0.3443417 -0.19442779 -0.2993897 -0.23456311 -0.22250527
-0.57418764 -0.23915476 0.030759485 -0.73172855 -0.38891092 -0.24253958 0.113974445 -0.09891495
-0.12370307 -0.22415498 -1.1055524 -0.3934716 -0.79133976 -1.1405945 -0.24633917 -0.19757128
0.18254179 -0.18488355 0.004480173 -0.12162953 0.21660173 -0.32248375 -0.26024574 -0.24578154
0.30302647 -0.4592128 -0.13850215 -0.59772867 -0.47265396 0.12634887 0.3234696 -0.5783868
