param_nonquant/encoder.layers.12.self_attn.linear_out.bias.npy (npy, 832 bytes, 1 tensors)

array f4 [176]
0.5284577 -0.4363692 -0.40695453 0.14053999 -0.83819616 -0.9455488 -0.16956784 -0.06961926
-0.09180774 -0.0979261 -0.1594691 0.6279521 -0.34905005 0.14364034 -0.042817988 0.13751662
-0.07181984 0.35597298 -0.3954699 0.76460993 0.6969237 -0.3219896 -0.1602026 -0.020020893
0.90824753 0.3966288 0.47669667 0.64683515 0.27244413 -0.44899833 -0.23983115 -0.1273435
0.24622922 -0.44421563 0.8191737 -0.18484274 -0.010374632 0.16973272 -0.41279447 0.098032966
0.32687527 -1.1567008 0.44144803 0.32002753 -0.24993718 0.361018 0.7028247 0.10839721
-0.16891283 -0.17267619 -0.18457359 -0.36620945 0.22939417 0.021916812 -0.013154097 0.805276
0.52434915 0.8655369 0.61098397 -1.2210596 0.92229694 -0.05441859 0.4063 -0.07036103
-0.38814712 0.6197016 -0.28342664 -0.05810506 0.39595854 0.0016491839 -0.9818641 0.52096725
-0.31457365 0.2707036 -0.8928796 0.009441468 -0.5394654 0.057377707 0.22898003 -0.88880074
-0.16593586 -0.0016829517 0.29552805 0.4569947 -0.38861495 0.34964824 0.69217175 0.067943424
0.24074407 0.12219303 0.9772863 0.4668309 -0.08108923 -0.37097284 -0.6086304 -0.2701053
-0.31166446 -1.2341969 -0.66004086 0.10146978 -0.17104024 0.04765752 0.62765265 -0.61179024
0.041743767 -0.21838558 -0.3652107 0.39885533 -0.41225946 0.28877923 0.37682137 0.33998567
0.2606116 -0.39783892 0.7671428 -0.08907786 -0.06769431 -0.6307737 0.3983373 -0.1730849
0.0032343215 0.46975473 0.25287563 -0.035175283 -0.45154944 -0.23630776 -0.24447267 -1.3669997
-1.324456 -0.46853536 0.092132 0.45921904 0.084257625 0.08619994 0.53226495 -0.15326376
1.7385375 -0.22035238 0.23366246 0.22839674 -0.94078475 -0.4061048 0.52642727 -0.696808
-0.84024316 0.24899565 -0.26310956 0.1005237 -0.1102472 -0.10189294 0.61319315 0.5063168
-0.015949834 -0.6653837 -0.5159409 -0.023184527 -0.021798879 -0.12923203 0.1163532 0.44081387
-0.08503985 0.77838975 0.1931577 0.06764194 -0.4157739 -0.106264316 -0.32700068 0.118105516
-0.5174774 -0.5116744 0.37417006 0.3530778 -0.6237129 0.019784335 -0.5058518 -0.3726864
00000000: 0149 073f c96b dfbe 585c d0be b7e9 0f3e
00000010: 0694 56bf 7c0f 72bf 31a3 2dbe 8b94 8ebd
00000020: b205 bcbd 7b8d c8bd de4b 23be 78c1 203f
00000030: b0b6 b2be 7416 133e ea61 2fbd 28d1 0c3e
00000040: 4816 93bd 1742 b63e 087b cabe 7abd 433f
00000050: 9769 323f d2db a4be 260c 24be db02 a4bc
00000060: e982 683f ee12 cb3e 9611 f43e fd96 253f
00000070: cc7d 8b3e 1ce3 e5be 4c96 75be 5666 02be
00000080: 8323 7c3e 3b70 e3be 5eb5 513f 6a47 3dbe
00000090: 5cfa 29bc 6ace 2d3e cc59 d3be 82c5 c83d
000000a0: 325c a73e c60e 94bf 7a05 e23e a6da a33e
000000b0: 88ef 7fbe 5ad7 b83e 52ec 333f 5bff dd3d
000000c0: 7cf7 2cbe 07d2 30be dc00 3dbe ce7f bbbe
000000d0: 4ee6 6a3e e38a b33c 4884 57bc 9126 4e3f
000000e0: bf3b 063f d493 5d3f 7269 1c3f ae4b 9cbf
000000f0: a71b 6c3f 07e6 5ebd 8e06 d03e 7219 90bd
00000100: 38bb c6be c4a4 1e3f 4c1d 91be 92ff 6dbd
00000110: 14bb ca3e 6e29 d83a 725b 7bbf 1c5e 053f
00000120: cc0f a1be aa99 8a3e c293 64bf 63b0 1a3c
00000130: 681a 0abf e304 6b3d be79 6a3e 7288 63bf
00000140: 17eb 29be 7d96 dcba 744f 973e 36fb e93e
00000150: 8af8 c6be 1805 b33e 2b32 313f ec25 8b3d
00000160: 9d85 763e 5740 fa3d 6f2f 7a3f 7604 ef3e
00000170: 1c12 a6bd 27f0 bdbe 34cf 1bbf 3e4b 8abe
00000180: 7c92 9fbe 2afa 9dbf 70f8 28bf 63cf cf3d
00000190: 2c25 2fbe 8834 433d d8ad 203f 499e 1cbf
000001a0: 83fb 2a3d 78a0 5fbe e6fc babe c436 cc3e
000001b0: ac13 d3be dfda 933e bbee c03e 9a12 ae3e
000001c0: e26e 853e 8bb1 cbbe 7863 443f 746e b6bd
000001d0: 50a3 8abd 637a 21bf def2 cb3e 2b3d 31be
000001e0: e9f6 533b b183 f03e ea78 813e f513 10bd
000001f0: 7d31 e7be a9fa 71be 0b57 7abe d9f9 aebf
00000200: c687 a9bf dee3 efbe b4af bc3d c21e eb3e
00000210: 438f ac3d 9889 b03d 8442 083f 2df1 1cbe
00000220: 6688 de3f 0ea4 61be 3645 6f3e d6e0 693e
00000230: 45d7 70bf f8ec cfbe f0c3 063f 0262 32bf
00000240: 2d1a 57bf b7f8 7e3e 4cb6 86be 5fdf cd3d
00000250: 49c9 e1bd 3fad d0bd 3afa 1c3f fa9d 013f
00000260: 3aa9 82bc 9656 2abf b414 04bf 7aed bdbc
00000270: 9093 b2bc 6755 04be 964a ee3d 5bb2 e13e
00000280: 5f29 aebd 8d44 473f 22cb 453e dc87 8a3d
00000290: 51e0 d4be 1ba1 d9bd a26c a7be 4ee1 f13d
000002a0: 6679 04bf 18fd 02bf 3893 bf3e 9dc6 b43e
000002b0: a6ab 1fbf c212 a23c 817f 01bf c0d0 bebe
