param_nonquant/encoder.layers.3.feed_forward2.linear2.bias.npy (npy, 832 bytes, 1 tensors)

array f4 [176]
000000 e9 d2 81 40 de f2 8f 3e fc f6 fe bd bc 76 23 c0
       4.056996 0.2811498 -0.12449452 -2.554122
000010 45 11 a8 3f 47 c9 d2 bd ed d7 9f bf 64 a7 d5 3f
       1.313027 -0.10292297 -1.248777 1.6691709
000020 94 37 23 bf ff 19 21 3f d8 e6 d8 3f 10 64 76 bf
       -0.6375668 0.6293029 1.6945448 -0.96246433
000030 f5 61 d3 3e ab fd b4 3e 67 b6 c8 be fe d0 03 40
       0.41285673 0.35349783 -0.39201662 2.0596309
000040 47 00 eb bf 2c c7 03 bd a4 7b 54 be 86 e4 b8 bf
       -1.835946 -0.032172367 -0.2075029 -1.444474
000050 39 25 8e bf 89 0b a0 3d f6 61 15 40 e5 25 f6 3e
       -1.110511 0.078147 2.334104 0.48075786
000060 5d bf ce bf ca bd fb bd e9 c7 c4 bd ab c4 da bd
       -1.615215 -0.12292059 -0.09608442 -0.10682043
000070 e1 c8 08 3c 00 29 4b bf c2 f6 2e 3e 33 a4 a5 3f
       0.0083486745 -0.79359436 0.17086318 1.2940735
000080 06 b3 57 bf 96 28 97 3f 52 a0 3c c0 9c da a3 bf
       -0.84257543 1.1809261 -2.9472852 -1.2801089
000090 01 2c 6c bf 2d f6 8d bf 57 c7 9c bc 18 4b ce 3f
       -0.92254645 -1.1090752 -0.019138021 1.6116667
0000a0 2c 28 07 3f 0d c6 91 3d f7 7d d6 bf be b7 09 c0
       0.5279567 0.07117853 -1.6757191 -2.1518397
0000b0 30 5c 80 3a 54 a5 ae 3f 92 c8 1f c0 73 46 e8 3f
       0.0009793099 1.3644204 -2.4966168 1.8146499
0000c0 fa b6 de bf b1 f4 d6 3e 3c 6c 94 bf af 1a ae 3f
       -1.739959 0.4198356 -1.159553 1.3601893
0000d0 1a 4c 8d bf 22 46 6c be be 25 57 be 60 74 a7 be
       -1.1038849 -0.23073629 -0.21010491 -0.32705975
0000e0 fe 4b 30 c0 a6 6a 9f 3f 04 79 a9 bc 08 05 82 bf
       -2.7546382 1.2454422 -0.020687588 -1.0157785
0000f0 4e e2 0d bf 96 30 13 3f 9b 17 c9 3e 52 e5 fe 3f
       -0.5542344 0.5749601 0.39275822 1.9913733
000100 dd 81 8b 3f d1 9a 8e 3f bf 04 8a be 86 3a 8b 40
       1.0899006 1.1140996 -0.26956746 4.350894
000110 b0 c4 a2 bd cc 11 e3 3d de 36 b6 bf 7e 3c 18 bf
       -0.079476714 0.11087379 -1.4235494 -0.59467304
000120 4a 5e 97 be a4 28 3b 3f 82 52 90 3f 4a 15 c1 be
       -0.29564124 0.7310889 1.1275179 -0.37711555
000130 94 d5 98 bf 39 15 60 3f 21 e0 38 bf 24 35 f9 bd
       -1.1940179 0.87532383 -0.72216994 -0.12168339
000140 d4 38 4b bf 78 b2 31 bf a8 6a 92 bf 25 8a 8d bf
       -0.7938359 -0.69412947 -1.1438799 -1.1057783
000150 7d 51 46 3f 11 f4 41 bf f3 7b 3e 3f 26 ba c0 3d
       0.7746809 -0.7576304 0.7440788 0.09410505
000160 b2 ae 9a 3f 9d b4 d9 3f 22 87 16 40 d8 59 45 bf
       1.2084563 1.7008244 2.3519979 -0.77090216
000170 0f b7 b3 bf 20 77 6f 3e ce 80 6f be 31 0b 1d 3f
       -1.404024 0.23385286 -0.23388979 0.613452
000180 7d 91 9c bf d9 97 5d bf 2d 4a ae be 64 2e ec 3e
       -1.22319 -0.86559826 -0.34040967 0.46129143
000190 94 65 b0 be e2 e2 55 be 52 fc 7b 3e e5 7e 9d be
       -0.34452498 -0.2088733 0.24607971 -0.30760875
0001a0 2d 28 29 3f 5f 62 dd bf 76 3b 5b 3f 72 dc 99 3e
       0.6607693 -1.7295645 0.85637605 0.30051
0001b0 17 86 02 be 5b 3a a2 bf c5 1a 84 3e fe fe 0b 3f
       -0.12746464 -1.2674059 0.25801674 0.5468596
0001c0 07 69 d6 3e a2 ea cd 3f cc 2b 30 bf 65 17 08 bf
       0.41877005 1.6087229 -0.6881683 -0.531607
0001d0 96 e1 4f 3e d6 ca 68 3f 70 85 4d c0 ad 6a 81 bf
       0.20300898 0.90934503 -3.2112694 -1.011068
0001e0 9e 3d 18 3f de 9d 21 be ca ef fe bd 6e c7 e1 be
       0.5946902 -0.15782878 -0.1244808 -0.44097465
0001f0 cc b8 1b 3f 2f 76 1e 3e 90 95 88 3f db 0a a1 bf
       0.6082885 0.15474771 1.0670643 -1.2581438
000200 d3 03 40 40 f2 0e f4 3f e8 7e 1a 3f 75 7f 99 bf
       3.0002334 1.9067061 0.60349894 -1.1992022
000210 f6 ce 48 bf 44 6a 8b 3f bf 6a ff 3f 60 90 06 3e
       -0.784408 1.0891805 1.9954451 0.13141012
000220 c2 7e 16 c0 5a 24 92 3e 92 d7 d0 3e e5 08 ca 3f
       -2.3514867 0.2854336 0.40789467 1.5783964
000230 33 3b ee be 8b d6 a5 bf 47 c5 40 3d 17 9f 82 bf
       -0.4652954 -1.2956098 0.04706314 -1.02048
000240 0b 48 bd be 74 ab 99 3f 8d ad 58 3f 01 77 8a 3f
       -0.36969027 1.2005448 0.8463982 1.0817567
000250 bc 11 0f bf ed 6e 20 bf b5 91 a8 bf be 21 0e 3f
       -0.55886436 -0.6266926 -1.3169466 0.55520236
000260 97 bc 89 3f 97 35 93 bf 28 e4 0e bf d2 0a 97 bf
       1.0760678 -1.1500729 -0.5581689 -1.1800177
000270 93 bb 93 3f e2 73 32 3f a0 f2 c5 be 80 3e 44 c0
       1.1541618 0.69708073 -0.3866167 -3.0663147
000280 cf cd fd 3e d9 58 01 3e 0f 28 89 be 98 4f af 3f
       0.49571082 0.12631549 -0.26788375 1.3696165
000290 17 5b 88 40 ba 22 eb bf 2a e0 4f bf 74 85 37 bf
       4.2611194 -1.8369973 -0.8120142 -0.7168801
0002a0 fa aa fa bf dc 1d 84 3f b4 41 2c be 1f f2 0b 3f
       -1.9583428 1.0321612 -0.16821939 0.5466632
0002b0 04 a1 d2 bf 5a 78 6d 3f 4c 21 46 bf 77 0c 55 bf
       -1.6455388 0.92761767 -0.77394557 -0.83222145
