param_nonquant/encoder.layers.0.feed_forward1.linear2.bias.npy (npy, 832 bytes, 1 tensors)

array f4 [176]
00000000: 216a 78bf 8518 db3e e8b5 9dbf 1e60 31be
00000010: ca86 2b3e ae03 c43f 3876 343f e5fb e0bd
00000020: a9ab bd3c 1468 733f 495c 6ac0 0399 a33f
00000030: 9186 b2be 8c5d 07bf 9bc4 0c3f d243 11c0
00000040: c3c9 97bf 9ab7 a1be 46a8 2c3e 4a48 db3e
00000050: 3b5e 3c40 1e77 9f3c 2ee1 33bf bc3f 8c3f
00000060: 261a e7be 9a3a a73e a1f2 c4be aa54 c8bf
00000070: 55d9 9340 210e 353f e1c6 06bf 6c9a 1b3e
00000080: 2ab9 a6be 65e2 b23f c043 823f ea32 1fbe
00000090: 74ec 3b40 9ee0 823f bcb8 22bf 3164 a73d
000000a0: d854 cc3f 619f d7bd a33e bf3e da4f fb3f
000000b0: a6ec 873f c2c5 9c3e f6d7 913f 5615 24bf
000000c0: 0ccd 663f 1a32 1140 b0e0 35c0 29c7 f640
000000d0: 55d7 933f 616b 213e 41b0 dabf 420b f33e
000000e0: 4dec 0640 74ac cbbf 1939 e5bd 7bfd 92bf
000000f0: 69eb a63d f417 1dc0 6cdf 9c3e 3bd0 b5bf
00000100: e0ed 1dbf 5bc9 7dbf 38c1 ff3f fc72 c3bf
00000110: bc87 133e a1ec efbd e1d5 fa3f 741a c23f
00000120: fe6b c9bf a672 4bbf cef4 383f acb0 c2bf
00000130: 9380 09c1 f7dd 2ebf d230 37bf 6f24 e13f
00000140: 066e dd3f d0eb e33e 1a44 163f 4066 7540
00000150: 360e 373f d96a 1fc0 f8e6 843f 68d8 0cc0
00000160: b553 7240 9eb3 583f 2c29 f43e bd4a b23f
00000170: ac39 d1bf 20ac 9cbf 2994 c13e 5d38 0040
00000180: 7235 06bf d02c a33f d64a f4be 58d8 a1be
00000190: 6ad9 c8bf 065d 7c3d 4b42 0a3f 07ab 323f
000001a0: b699 8cbf 34a7 76bf 46be 4bbe f2bc ab3f
000001b0: fab4 c33f a3ad 2e40 2271 aebe 9ac3 f9be
000001c0: 47bb d3bf 5ac1 f4bf f930 e5be a818 9ebf
000001d0: 66df d1bd c77f 9d3e d0cc 20bf 400a 02c0
000001e0: 208c 35be 1b36 4dbf 7b36 0b40 057f c9bf
000001f0: ef3a e7bf 5e98 83bf 10a0 073f 1157 15bf
00000200: 5283 14c0 8085 c03e 75b1 713f b7d9 593f
00000210: 6f02 923e 4c09 a0bf 4afb 933e 06e3 a33e
00000220: a81d 45c0 7dd9 98be 8170 debf 767c 323f
00000230: 2362 003f 7965 12bd e21e 09c0 d043 94be
00000240: 8cc7 0640 41de cf3f 3972 7f3f 30cc 71be
00000250: cff0 c8bf f540 f53e a842 34bf d6bc b7be
00000260: 7867 c3bf 91e5 d1be 54a2 d5bf 6b6b 3bbf
00000270: c65d 02c0 01ae 1f3f b419 b33e d232 2740
00000280: e478 ee40 52d7 1cbe c679 e1bd 16b4 0740
00000290: 4ff9 c8bf c27b 04c0 a60c 8ac0 1675 d3bf
000002a0: 469b d53f d06f 863e 66f8 07c0 9e5d 39bf
000002b0: a10d f73e f4b2 a7bf b458 a0bf 02c0 1140
-0.9703694 0.42792144 -1.2321138 -0.17321822 0.16750637 1.5313623 0.7049289 -0.10985545
0.023153143 0.95080686 -3.6618826 1.278107 -0.3486829 -0.52877116 0.54987496 -2.2697644
-1.1858448 -0.3158539 0.16861066 0.4282859 2.9432514 0.01946598 -0.7026547 1.095695
-0.45137137 0.32661897 -0.3846636 -1.5650837 4.62028 0.70724684 -0.52647215 0.15195626
-0.32563144 1.397534 1.0176926 -0.15546766 2.936307 1.0224798 -0.6356313 0.08173407
1.5963392 -0.10528446 0.37352476 1.9633744 1.0619094 0.30619627 1.1394031 -0.64095056
0.90156627 2.268683 -2.8418388 7.7118115 1.1550089 0.15763618 -1.7085038 0.47469527
2.1081727 -1.5912004 -0.11192531 -1.1483606 0.0815037 -2.454587 0.30639207 -1.4204172
-0.61691093 -0.9913537 1.9980841 -1.5269465 0.14407247 -0.11715055 1.9596521 1.5164323
-1.5736082 -0.79471815 0.7224854 -1.5210166 -8.59389 -0.6830744 -0.7155887 1.7589244
1.7299201 0.44515848 0.58697665 3.8343658 0.7150606 -2.4908965 1.0382986 -2.2007084
3.786359 0.84649074 0.47687662 1.3929058 -1.6345725 -1.2240028 0.3780835 2.0034401
-0.524253 1.2748051 -0.47713345 -0.3161037 -1.569135 0.06161215 0.54007405 0.69792217
-1.0984409 -0.9634888 -0.19896802 1.3417037 1.5289605 2.729348 -0.34070688 -0.48782045
-1.6541528 -1.9121506 -0.44763926 -1.2351274 -0.10247688 0.3076155 -0.6281252 -2.0318756
-0.17729235 -0.80160683 2.1752002 -1.5741888 -1.806486 -1.0280874 0.5297861 -0.5833598
-2.3205152 0.37601852 0.944114 0.8509783 0.28517482 -1.2502837 0.28902656 0.32009143
-3.079935 -0.2985343 -1.7378083 0.6972116 0.50149745 -0.035741303 -2.14251 -0.28957987
2.1059294 1.6239702 0.99783665 -0.23613048 -1.5698489 0.4790112 -0.7041421 -0.35886258
-1.5265951 -0.40995458 -1.6690164 -0.7321078 -2.0369735 0.62374884 0.34980547 2.6124768
7.452257 -0.15316513 -0.110095546 2.1203666 -1.5701083 -2.0700536 -4.314044 -1.6520107
1.6688011 0.2625718 -2.124536 -0.72408473 0.48252586 -1.3101487 -1.252707 2.2773442
