param_nonquant/encoder.layers.13.norm_out.mod.bias.npy (npy, 832 bytes, 1 tensors)

array f4 [176]
000000 8e 50 c2 3f 04 a5 03 3f c8 86 93 41 1c af 7f bf
       1.5180833 0.5142367 18.440811 -0.9987657
000010 77 63 cc 3d 71 27 4c bf b7 fd 45 3f fc 65 aa be
       0.09979909 -0.7974768 0.77340263 -0.33280933
000020 96 ac bb bd 36 45 41 bf 1d f7 b4 3e e6 4c 30 3f
       -0.091637775 -0.7549623 0.35344782 0.6886734
000030 ef 81 5a bf e2 fc a8 3f e7 0d 81 3c 84 df b2 3f
       -0.8535451 1.3202174 0.0157537 1.3974462
000040 05 94 5e 3f 46 6d f2 bf dd 32 38 bd ac f0 5b 3f
       0.8694461 -1.8939598 -0.044970382 0.8591411
000050 60 3b c5 bf 4d 6e 17 40 da 65 75 3f 39 e5 b8 3f
       -1.5408745 2.3661072 0.9585854 1.4444953
000060 0f 3d 24 bf 7f e9 7b 3f 36 a9 39 3f fb b0 82 3d
       -0.6415567 0.9840316 0.7252382 0.063814126
000070 98 50 ba bf d5 8e ad be 9d 15 b7 3e 9e ff 7c 3e
       -1.4555845 -0.33898035 0.35758677 0.24706885
000080 09 3c 80 3d 03 d0 89 3f 4a e4 84 3f 92 64 db 3f
       0.06261451 1.0766605 1.0382168 1.7140067
000090 ad e6 db bf 46 8d c1 c0 44 7d 8b 3f 61 f8 2a 3f
       -1.7179772 -6.0484953 1.0897603 0.66785246
0000a0 48 d8 9f bf 00 20 94 bf 4c ff 99 3f 32 9d 70 be
       -1.2487879 -1.1572266 1.2031035 -0.23497465
0000b0 ca 57 b5 bf 16 db 4f 3f 84 46 4d 3f ee 8f 4a 3f
       -1.4167416 0.81193674 0.80185723 0.7912587
0000c0 06 20 8a 3f d8 6f 99 3e 81 5c 91 be 72 bb 88 3f
       1.0791023 0.29968143 -0.28390887 1.0682204
0000d0 e7 2c ce 3f 39 3e 54 40 03 d5 f9 be 51 89 a5 bf
       1.6107453 3.3162978 -0.48795328 -1.2932531
0000e0 0b b0 66 3e e0 a1 01 40 9a b1 31 3f 40 40 48 40
       0.22528093 2.025505 0.69411623 3.1289215
0000f0 28 b8 07 3f 32 79 75 bf 99 a0 18 bf f9 26 1c 3e
       0.53015375 -0.95888054 -0.5962005 0.15249242
000100 a1 ff e9 3e 33 b1 8c 3e 9e 2b 35 3f 6d b5 c0 3e
       0.45702842 0.27478942 0.7076968 0.37638417
000110 42 14 36 bf 3c d2 59 3e 5c 9c 87 bf c8 86 f4 bf
       -0.7112466 0.21271604 -1.0594592 -1.9103632
000120 75 3c 17 3f 2b 42 50 3f 12 c6 2a 3f f4 9b 63 3f
       0.59076625 0.81350964 0.6670848 0.8890984
000130 e9 fc c8 bf 8b ff ba 3e 41 82 f0 bf fb e6 71 bb
       -1.5702182 0.3652309 -1.878975 -0.0036911357
000140 f3 24 5e bf 80 79 04 bf 55 c8 ce bd 14 6d a3 bf
       -0.8677513 -0.51747894 -0.10096804 -1.2767663
000150 37 09 af 3e d4 b1 d2 be 55 31 88 be 3a a4 86 3e
       0.34186718 -0.41151297 -0.26600137 0.2629717
000160 20 d1 85 be 79 ff 03 3f de 89 24 be 3b 98 0b bf
       -0.26136112 0.51561695 -0.16068217 -0.5452916
000170 07 4e 95 3d 3e 84 97 3f 59 7e c3 be 55 6c 1e 3e
       0.07290273 1.1837232 -0.38182333 0.15471013
000180 a5 92 7e bf 5a 23 db 3e 60 a7 03 bf f5 74 8a 3f
       -0.9944251 0.4280041 -0.5142727 1.0816942
000190 dd a9 6e 3f 2c 78 87 3e e5 72 c1 3f 98 a8 8a bf
       0.9322794 0.2645887 1.5113188 -1.0832701
0001a0 45 7d 0a 3f 54 41 82 bf 1a 76 89 3f 2c d9 4e bf
       0.54097396 -1.0176187 1.0739167 -0.8080013
0001b0 5f 6e 65 c0 18 6e cf 3d ea 9c 15 3f 0d 52 eb bf
       -3.5848615 0.101284206 0.58442557 -1.8384415
0001c0 87 bf ca be 2d a1 8f bf 02 ee e3 3e eb 02 b1 3e
       -0.3959925 -1.1221062 0.44517523 0.3457254
0001d0 a1 ee 7a 3f 82 5f 26 40 d6 f7 90 bf 54 75 49 c0
       0.9802037 2.5995793 -1.1325634 -3.1477861
0001e0 b8 75 05 bf f0 11 3a 3f a3 d1 82 3f df 34 1c 3f
       -0.5213275 0.7268362 1.0220226 0.61018175
0001f0 cd dd cc bf 58 48 91 3e 67 dd 7a 3f b9 bb 62 be
       -1.6005188 0.28375506 0.97994083 -0.22141923
000200 9a c8 e7 3f 8c 82 e8 bf 95 76 96 bf 47 e1 f5 3e
       1.8108094 -1.816484 -1.1754938 0.48023435
000210 bb c9 44 3f 20 81 89 be 0c d1 d2 3d 9d 93 48 be
       0.76870316 -0.26856327 0.10293779 -0.1958756
000220 33 f1 fb c0 3e 4e 3e 3e e0 45 55 be 61 d9 8c bf
       -7.8731933 0.18584535 -0.20827436 -1.1003839
000230 28 b4 03 40 1c 8f 0b c0 bd cf 26 3f b4 52 91 3e
       2.0578709 -2.1806097 0.65160733 0.2838341
000240 8c e4 57 3f ca 06 03 40 94 c7 93 be d3 3f ec bc
       0.8433311 2.0472894 -0.28863204 -0.028839028
000250 92 b2 5b 3f a7 df f5 3e a8 7b e0 3f 6b e0 eb 3e
       0.8581935 0.48022196 1.7537737 0.46069655
000260 06 44 39 bf 6f e4 ad bf 6c 03 97 bb 0b d1 94 bf
       -0.7236942 -1.3585337 -0.004608562 -1.1626295
000270 c3 74 bc 3f 78 a0 58 40 24 2b b1 bf 6a 37 ca be
       1.4723133 3.3847942 -1.384129 -0.39495403
000280 d7 f9 df 3f b9 5a 6a 3f a1 3a 24 bd fb 65 dd bf
       1.749812 0.9154468 -0.040094975 -1.7296747
000290 ea 97 b9 3d a7 16 7a bd e0 17 e4 be ce 75 1f 3d
       0.090621784 -0.06105676 -0.44549465 0.038930707
0002a0 4e 00 e3 be 07 5f 69 bf 45 03 b3 c1 60 97 fc bc
       -0.4433617 -0.91160625 -22.376596 -0.0308339
0002b0 ae a9 ca 3f 92 15 26 3f 2d 33 39 be 82 e9 47 3f
       1.5833032 0.64876664 -0.18085928 0.7809068
