param_nonquant/encoder.layers.11.self_attn.linear_v.bias.npy (npy, 832 bytes, 1 tensors)

array f4 [176]
0.078828365 -0.070293054 -0.013267778 -0.044008527 -0.015151304 -0.047660254 -0.029615896 -0.05650617
-0.040944226 -0.02341808 -0.052206427 0.032069497 0.033630922 -0.09529349 -0.081029326 -0.046221085
0.07950526 0.056463506 -0.09578021 0.052727353 -0.14830653 0.00015971786 -0.026958678 -0.10148993
-0.00567872 0.07944812 0.012807241 -0.033555113 -0.12514469 -0.0032958328 -0.03385756 0.043947943
0.06900623 0.03625959 0.15608364 0.016612783 -0.05023155 -0.025869355 -0.02580891 -0.087962426
0.03275676 0.07590237 0.048718546 -0.010677386 0.017847475 -0.080955565 0.013366373 0.13514712
-0.016590666 -0.027386425 0.06478008 -0.05766994 -0.05901091 0.021272788 0.0635287 0.08059866
-0.07999016 -0.09816256 0.047508538 -0.047597513 -0.034487084 -0.015389329 -0.04227123 -0.019293368
0.05421234 -0.018889315 -0.08348887 -0.021596078 -0.06199523 0.0025369076 -0.058183085 0.06498588
6.795503e-05 0.004010383 0.011202993 0.072065376 0.1209785 -0.052084498 0.047185145 0.115729146
-0.031037182 0.036317136 0.046195053 -0.11134337 -0.02380456 -0.00035238697 -0.028221767 -0.061889738
-0.005131535 0.018353548 0.16037723 0.033504132 -0.038373314 -0.016552446 -0.0063105756 -0.056497365
-0.15699741 -0.004053911 -0.056844823 0.033979863 -0.037104625 -0.036883134 -0.015190182 -0.0066666068
0.015664186 -0.103011295 0.011258945 0.061390392 -0.035873268 -0.058573276 0.049291294 -0.09530782
0.06472865 0.112101294 0.007828734 0.06524828 0.029386478 0.06551583 0.025141863 0.019748075
-0.042947885 0.010004004 -0.076891355 0.018838093 0.024071865 -0.07256675 -0.0020020136 -0.0048483755
0.08820173 -0.29333743 -0.0009781711 0.054027364 -0.07130526 -0.22200772 0.08202261 -0.12385269
0.024779107 -0.008288428 -0.1035114 0.011577734 -0.019253498 -0.021497369 -0.067457855 0.022741381
0.13841836 0.15356444 0.077449135 0.085201755 0.07321502 -0.079791166 -0.06677607 -0.07830828
0.1261899 -0.08900249 0.00230252 0.026577998 -0.09987195 0.042532593 -0.105972454 0.13366656
-0.059787523 -0.120909214 0.06699073 -0.011511201 0.0858883 0.06587373 0.09446655 -0.04971332
0.04637593 -0.01180264 0.03529824 -0.049672212 -0.033038996 -0.07027297 0.02909985 -0.07851684
00000000: c470 a13d cef5 8fbd 1861 59bc 4942 34bd
00000010: 2d3d 78bc 6637 43bd 099d f2bc 0473 67bd
00000020: 22b5 27bd 46d7 bfbc 68d6 55bd 4e5b 033d
00000030: 94c0 093d 3c29 c3bd b4f2 a5bd 5252 3dbd
00000040: a7d3 a23d 4746 673d 6a28 c4bd a3f8 573d
00000050: abdd 17be f079 2739 72d8 dcbc f4d9 cfbd
00000060: 8e14 babb b2b5 a23d 76d5 513c 1671 09bd
00000070: ee25 00be e6fe 57bb 3aae 0abd c202 343d
00000080: 2353 8d3d f084 143d 64d4 1f3e 8817 883c
00000090: 99bf 4dbd f8eb d3bc 356d d3bc a525 b4bd
000000a0: f42b 063d b472 9b3d 198d 473d 34f0 2ebc
000000b0: de34 923c 08cc a5bd a2fe 5a3c 0264 0a3e
000000c0: 26e9 87bc 7f59 e0bc 6bab 843d 5137 6cbd
000000d0: 6db5 71bd 4544 ae3c 561b 823d e910 a53d
000000e0: e2d1 a3bd 7409 c9bd 5098 423d 9cf5 42bd
000000f0: 5442 0dbd 8623 7cbc 9924 2dbd 200d 9ebc
00000100: c20d 5e3d c4bd 9abc 36fc aabd 42ea b0bc
00000110: b6ee 7dbd 3f42 263b 6351 6ebd 5117 853d
00000120: 1483 8e38 8869 833b c28c 373c 0397 933d
00000130: 93c3 f73d 8e56 55bd 3645 413d 6703 ed3d
00000140: b041 febc 47c1 143d 0637 3d3d fe07 e4bd
00000150: c801 c3bc 94c0 b8b9 5631 e7bc 1880 7dbd
00000160: 7026 a8bb 2e5a 963c ee39 243e a13b 093d
00000170: 562d 1dbd ff98 87bc f2c8 cebb c869 67bd
00000180: eec3 20be acd6 84bb 1ed6 68bd 782e 0b3d
00000190: 05fb 17bd c512 17bd 3ee0 78bc 8d73 dabb
000001a0: 2e52 803c 96f7 d2bd 7077 383c 7e74 7b3d
000001b0: d9ef 12bd 88ea 6fbd abe5 493d bf30 c3bd
000001c0: 7490 843d 5d95 e53d 1744 003c e4a0 853d
000001d0: e9bb f03c 2a2d 863d 4ff6 cd3c b7c6 a13c
000001e0: 1fea 2fbd d6e7 233c 3779 9dbd 5852 9a3c
000001f0: 5c32 c53c e09d 94bd 3734 03bb 1fdf 9ebb
00000200: 1ca3 b43d 5330 96be fa35 80ba cc4b 5d3d
00000210: 7e08 92bd fe55 63be 78fb a73d 7ba6 fdbd
00000220: 8efd ca3c 30cc 07bc c9fd d3bd 89b0 3d3c
00000230: 83b9 9dbc 401b b0bc 5827 8abd 224c ba3c
00000240: 8bbd 0d3e ff3f 1d3e a79d 9e3d 427e ae3d
00000250: c2f1 953d 8d69 a3bd e4c1 88bd 1760 a0bd
00000260: ed37 013e f046 b6bd e0e5 163b 1aba d93c
00000270: aa89 ccbd a836 2e3d 1608 d9bd e3df 083e
00000280: c3e3 74bd 409f f7bd 7032 893d 7a99 3cbc
00000290: 34e6 af3d cee8 863d ae77 c13d 32a0 4bbd
000002a0: b0f4 3d3d dc5f 41bc e394 103d 1775 4bbd
000002b0: e653 07bd 46eb 8fbd cf62 ee3c 70cd a0bd
