param_nonquant/encoder.layers.1.self_attn.linear_k.bias.npy (npy, 832 bytes, 1 tensors)

array f4 [176]
0	0xbe8b765c	-0.2723874
1	0x3de41615	0.11137024
2	0xbe899c48	-0.26877046
3	0xbccd0b3f	-0.025029777
4	0x3ef80a32	0.48445278
5	0xbf048e87	-0.5177998
6	0xbe3a3a24	-0.18186241
7	0x3dbd9335	0.09256593
8	0x3d0328a5	0.032021184
9	0x3eba808a	0.36426193
10	0x3e848991	0.25886205
11	0xbcb7eeaa	-0.022452671
12	0x3eaab28c	0.33339345
13	0x3df83cb7	0.121209554
14	0x3dccedbc	0.10006282
15	0xbe8cac7a	-0.2747534
16	0x3e8d813c	0.2763766
17	0xbe9f30df	-0.31091973
18	0xbe1a9dae	-0.15099213
19	0xbec43648	-0.38322663
20	0xbc4c5abc	-0.012472805
21	0x3ea65f22	0.32494456
22	0x3ea2f2a2	0.3182574
23	0x3e194388	0.14967167
24	0xbe65a814	-0.22427398
25	0x3dee3c56	0.11632602
26	0xbd0096b9	-0.03139374
27	0xbec3ba4b	-0.38228068
28	0xbda6241e	-0.081123576
29	0x3e70ccbc	0.235156
30	0x3e0690a1	0.13141109
31	0xbf06c8e4	-0.52650285
32	0xbf694e58	-0.9113517
33	0x3e598fa9	0.21246208
34	0x3e9ecad2	0.31014115
35	0xbde20ace	-0.11037217
36	0xbee505e3	-0.44731054
37	0xbf0fc565	-0.56160575
38	0x3f04e122	0.51906025
39	0xbf3b0a4c	-0.73062587
40	0xbf106443	-0.5640299
41	0xbf7d9c63	-0.9906675
42	0x3db5b8ae	0.088731155
43	0x3e8e19c3	0.2775403
44	0x3e684df6	0.2268599
45	0xbebc6b88	-0.3680079
46	0xbdc4ee19	-0.09615726
47	0x3cc3e67e	0.023913618
48	0xbe009533	-0.12556915
49	0xbe49caa1	-0.19706203
50	0xbeb5ead5	-0.35530725
51	0x3e218a66	0.15775451
52	0xbeb092ea	-0.34487087
53	0x3df235b7	0.118266515
54	0xbf155d09	-0.58345085
55	0x3d4b8c22	0.049694188
56	0xbe126018	-0.1429447
57	0xbe51f81a	-0.205048
58	0x3dda1c5e	0.10649942
59	0x3de5610b	0.1120015
60	0xbde76da4	-0.11300209
61	0x3e32f436	0.17475972
62	0xbebd43ec	-0.36965883
63	0x3e55048f	0.2080252
64	0x3f0d182f	0.55115026
65	0xbf253736	-0.6453737
66	0xbc8094fa	-0.015696038
67	0x3df2bdde	0.118526205
68	0x3e9114e8	0.28336263
69	0x3e38cbfc	0.18046564
70	0x3f35a920	0.7096119
71	0x3ed92a2c	0.42414987
72	0xbecc15b5	-0.3986031
73	0x3d3480c3	0.04406811
74	0x3df7b56d	0.12095151
75	0x3eca2c20	0.3948679
76	0x3d8d5a46	0.06901984
77	0x3dea8c6e	0.11452566
78	0x3e2a4d58	0.16631067
79	0xbe65e821	-0.22451831
80	0x3f3a966c	0.72885776
81	0xbed9fef8	-0.42577338
82	0xbedf58dc	-0.43622482
83	0xbe6d7e00	-0.23192596
84	0x3ea1e2df	0.316184
85	0x3f27a1ac	0.65481067
86	0x3e88f12c	0.267465
87	0xbec27bbe	-0.37985033
88	0xbb122688	-0.0022300798
89	0xbe9ad9e5	-0.30244365
90	0x3f010178	0.50392866
91	0x3d831a87	0.06401544
92	0x3eb430e0	0.3519354
93	0xbeff5a8d	-0.49873772
94	0x3df357f6	0.118820116
95	0xbdb5ee5a	-0.088833526
96	0x3eb20a07	0.34773275
97	0x3f0210ef	0.5080709
98	0x3d7092b4	0.058733657
99	0x3de412fe	0.11136435
100	0xbf74c5e6	-0.9561447
101	0xbe11d696	-0.14242014
102	0xbf0a73e9	-0.54083115
103	0xbe9038f3	-0.2816845
104	0xbe9f96fe	-0.31169885
105	0x3e2eabf2	0.1705778
106	0xbe05289b	-0.13003771
107	0x3e0eeb34	0.1395691
108	0x3e2d782f	0.16940378
109	0x3eb665db	0.35624585
110	0x3ef90260	0.48634624
111	0x3ea0a640	0.3137684
112	0x3ecdaeab	0.40172324
113	0xbe0092da	-0.1255602
114	0x3edffc89	0.43747357
115	0x3f073fca	0.5283171
116	0x3e7bed5e	0.24602267
117	0xbedd7afb	-0.4325789
118	0x3e8ce60c	0.27519262
119	0xbe514ccc	-0.20439452
120	0xbf0b9de3	-0.5453779
121	0xbdd2fe32	-0.1030239
122	0xbe471a1d	-0.19443555
123	0xbf0e47b0	-0.55578136
124	0x3f318125	0.69337684
125	0xbe775a6d	-0.24155588
126	0x3ee26dd5	0.4422442
127	0xbed66dd8	-0.4188068
128	0x3f8086df	1.0041159
129	0x3f9a847b	1.207168
130	0xbe686214	-0.22693664
131	0xbdd55fbf	-0.10418653
132	0xbe15a0c0	-0.14612103
133	0x3e18be88	0.14916432
134	0x3f102b1d	0.56315786
135	0xb9e48d10	-0.0004359265
136	0xbe0fbb7c	-0.14036363
137	0xbe2d443a	-0.16920558
138	0x3e31f336	0.17377934
139	0x3ea5b828	0.32367063
140	0x3e6c22be	0.23060128
141	0xbdadf88c	-0.08494672
142	0x3eb520da	0.35376626
143	0x3d8ba6a7	0.06818896
144	0x3ec52e86	0.38512057
145	0xbfbf856b	-1.4962591
146	0xbe1b33ac	-0.1515643
147	0xbf03f6f2	-0.51548684
148	0xbf1a1361	-0.6018582
149	0xbd94b8df	-0.07261824
150	0xbe794eef	-0.24346517
151	0x3ea66c23	0.32504377
152	0xbedab172	-0.42713505
153	0xbf8ac15a	-1.0840256
154	0x3f0fa8f4	0.56117177
155	0x3e28d4e7	0.16487466
156	0xbccca028	-0.024978712
157	0xbe18b072	-0.14911059
158	0x3eb27679	0.34856012
159	0x3e455750	0.19271588
160	0xbdcea3a4	-0.10089806
161	0xbda4f1aa	-0.08053906
162	0x3ef1fb81	0.47262195
163	0xbee78a8c	-0.4522289
164	0xbed7ee60	-0.42174053
165	0x3e57f2ee	0.21088764
166	0x3f08e8e0	0.5348034
167	0x3f320456	0.69537866
168	0xbec2cb60	-0.38045788
169	0xbee410d4	-0.4454409
170	0x3e47a4aa	0.19496408
171	0x3daa417e	0.08313273
172	0x3ba36b2c	0.004987141
173	0xbe54e463	-0.20790248
174	0x3f440948	0.7657666
175	0x3dd89dc4	0.105769664
