param_nonquant/encoder.layers.0.self_attn.pos_bias_u.npy (npy, 832 bytes, 1 tensors)

array f4 [4, 44]
-0.0278242 -0.024354588 -0.004100767 -0.008984229 0.019347498 0.01925154 0.118734844 -0.06636817
0.04587075 -0.06186925 -0.020816479 -0.03548013 -0.0207446 0.05339335 -0.010028192 0.007829725
0.028241308 0.020513166 0.09527115 0.03933919 0.060536597 -0.08674951 0.024042632 0.05639088
-0.079337575 0.06509546 0.030255476 0.041557822 -0.014578518 -0.07185697 -0.06616296 -0.050351303
-0.030492503 0.00291641 0.05147493 0.05725799 -0.0060797026 0.005660458 -0.04016722 -0.010848758
-0.050768588 -0.08027644 0.001008448 0.060231686 -0.039123725 0.012198575 -0.01235212 0.05578734
-0.02708301 0.05624846 -0.13912308 0.04632969 -0.0017232152 -0.021834537 -0.021166028 0.00039818982
0.025376929 -0.05915436 -0.029931623 0.005357922 -0.03551141 -0.00051899126 -0.004237123 -0.030609047
-0.0080417935 -0.049779754 -0.006926409 0.030976977 -0.0189952 0.005178593 -0.041594267 -0.050114166
-0.0030994928 -0.00052092184 0.047741197 0.057672136 0.055039637 0.040153574 0.03569172 0.016151968
-0.011269775 0.03498236 -0.055448856 0.04724154 -0.07918015 0.1776844 0.0065245335 0.016852207
0.06485775 -0.05833014 -0.021715742 -0.009934395 -0.1558477 -0.01525479 -0.055519473 -0.021771241
0.011564638 0.041892502 -0.062589504 0.37813002 -0.05624771 -0.019183248 -0.028130688 -0.053043064
-0.017277466 0.04391816 0.03509384 -0.000103925675 -0.04956015 -0.019091584 -0.015979523 -0.026172604
0.019072384 0.03536637 -0.02217953 0.036566913 0.03935309 -0.025134604 -0.108180285 0.07481689
0.051926997 -0.033862 -0.048408963 0.02106019 -0.06138145 -0.04907718 -0.013007321 0.015128482
-0.014557812 -0.02157999 -0.0035832752 0.12627575 0.034985885 -0.04758746 0.10790481 0.015295437
0.00014413314 0.06555577 -0.01636799 0.015517404 0.021855984 -0.04513767 -0.018798769 0.033972844
-0.019087931 -0.008041619 0.041464478 -0.026298096 -0.026272343 -0.008307372 -0.026179008 0.06304679
0.054855354 -0.006734712 -0.024099683 -0.0073555857 -0.060281537 -0.022812739 0.037340626 0.015447159
-0.04679587 -0.022667743 -0.017134141 -0.02947817 0.030545222 -0.052648537 -0.28460854 -0.051989783
-0.026663365 0.07414867 0.031768233 -0.0391543 0.030363724 -0.012310654 0.0016608456 0.029850654
00000000: 94ef e3bc 4683 c7bc ba5f 86bb 9632 13bc
00000010: a57e 9e3c 68b5 9d3c 412b f33d 09ec 87bd
00000020: f8e2 3b3d 9c6a 7dbd 5287 aabc 9d53 11bd
00000030: 94f0 a9bc fcb2 5a3d 494d 24bc 3f48 003c
00000040: 515a e73c 3a0b a83c 851d c33d 2122 213d
00000050: 39f5 773d baa9 b1bd 0ef5 c43c 20fa 663d
00000060: bd7b a2bd c550 853d 55da f73c 8938 2a3d
00000070: bdda 6ebc bf29 93bd 7280 87bd 2b3d 4ebd
00000080: 6acb f9bc 3e21 3f3b 60d7 523d 5b87 6a3d
00000090: 3e38 c7bb 5d7b b93b 6286 24bd fdbe 31bc
000000a0: b9f2 4fbd f967 a4bd e62d 843a 80b5 763d
000000b0: 3340 20bd 88dc 473c 8c60 4abc 4481 643d
000000c0: 30dd ddbc c964 663d 4876 0ebe 33c4 3d3d
000000d0: 82dd e1ba 58de b2bc 6164 adbc 22c4 d039
000000e0: 47e3 cf3c d84b 72bd 2a33 f5bc 8291 af3b
000000f0: 6a74 11bd ea0c 08ba 90d7 8abb d3bf fabc
00000100: bac1 03bc dbe5 4bbd eef6 e2bb 6ec3 fd3c
00000110: d29b 9bbc 30b1 a93b c05e 2abd 8344 4dbd
00000120: dc20 4bbb 798e 08ba 468c 433d 9e39 6c3d
00000130: 3e71 613d 1378 243d 7b31 123d 2251 843c
00000140: dda4 38bc aa49 0f3d 571e 63bd 5880 413d
00000150: 3429 a2bd e6f2 353e c1cb d53b a40d 8a3c
00000160: 24d4 843d 96eb 6ebd 36e5 b1bc dfc3 22bc
00000170: 8a96 1fbe 3aef 79bc 6368 63bd 9a59 b2bc
00000180: 9c79 3d3c 7997 2b3d ed2e 80bd 429a c13e
00000190: 0064 66bd 3026 9dbc 5472 e6bc af43 59bd
000001a0: 7989 8dbc 87e3 333d 8fbe 0f3d acf2 d9b8
000001b0: 95ff 4abd f465 9cbc 7de7 82bc ee67 d6bc
000001c0: b03d 9c3c 54dc 103d d8b1 b5bc 30c7 153d
000001d0: b530 213d 16e7 cdbc a08d ddbd 9939 993d
000001e0: 67b1 543d e1b2 0abd 7a48 46bd 6b86 ac3c
000001f0: 1e6b 7bbd 2705 49bd a91c 55bc 74dd 773c
00000200: e483 6ebc 85c8 b0bc 62d5 6abb 6e4e 013e
00000210: 5c4d 0f3d 12eb 42bd 32fd dc3d b699 7a3c
00000220: 7222 1739 1b42 863d 2a16 86bc b63c 7e3c
00000230: 520b b33c 47e2 38bd e0ff 99bc 1c27 0b3d
00000240: 4b5e 9cbc ffc0 03bc a8d6 293d 1b6f d7bc
00000250: 1939 d7bc a51b 08bc 5c75 d6bc ad1e 813d
00000260: 02b0 603d dcae dcbb b36c c5bc 2007 f1bb
00000270: c6e9 76bd c8e1 babc 7cf2 183d 1516 7d3c
00000280: 07ad 3fbd b4b1 b9bc e65c 8cbc 347c f1bc
00000290: f939 fa3c fea5 57bd 36b8 91be 3df3 54bd
000002a0: 216d dabc 42db 973d 681f 023d 4260 20bd
000002b0: 58bd f83c a0b2 49bc bbb0 d93a 5c89 f43c
