param_nonquant/encoder.layers.0.norm_conv.mod.bias.npy (npy, 832 bytes, 1 tensors)

array f4 [176]
0	0xbda3d314	-0.07999244
1	0xbe23a718	-0.1598171
2	0x3e17b2ab	0.1481425
3	0xbe24b566	-0.16084823
4	0xbe822c43	-0.25424394
5	0xbe65af04	-0.22430044
6	0xbea3ff20	-0.32030582
7	0x3e16be36	0.14720997
8	0x3e090f34	0.13384706
9	0xbe0f2eb2	-0.13982657
10	0x3e1e6c77	0.15471064
11	0xbd8bb124	-0.06820896
12	0x3e187a47	0.14890395
13	0x3d94f1bd	0.072726704
14	0xbc7e5442	-0.015523018
15	0x3d26739d	0.0406376
16	0xbd4c3a11	-0.049860064
17	0xbe8801ea	-0.2656396
18	0x3d82a0a6	0.063782975
19	0x3d3cbb54	0.046077088
20	0xbe81934d	-0.25307694
21	0x3dc0686a	0.093949154
22	0x3dc8b5de	0.098003134
23	0x3e7f35cd	0.24922867
24	0x3d94d7cd	0.07267723
25	0x3e488718	0.19582784
26	0x3d9d0e98	0.07668799
27	0xbd8c1b0e	-0.06841098
28	0xbda0dce4	-0.078546315
29	0xbdec2424	-0.11530331
30	0x3dc8ca60	0.09804225
31	0xbec0e8e6	-0.37677687
32	0xbdd4b228	-0.10385543
33	0x3dce8f69	0.10085947
34	0xbe11f7f6	-0.14254746
35	0x3de33de2	0.110957876
36	0x3d21e5e1	0.03952587
37	0x3e143b01	0.14475633
38	0xbd7da096	-0.061920725
39	0xbe329871	-0.17440964
40	0x3d99cca4	0.07509735
41	0xbdbfd754	-0.093672425
42	0x3dd76270	0.10516822
43	0x3db3bf15	0.087766804
44	0xbdbac878	-0.09120268
45	0xbe020130	-0.12695765
46	0x3e973c42	0.2953816
47	0xbde982e8	-0.114019215
48	0x3e1e2164	0.15442425
49	0xbe31176a	-0.17294088
50	0xbda00da6	-0.07815103
51	0xbf603b3e	-0.87590396
52	0xbd0db577	-0.034596886
53	0xbd14aba4	-0.0362965
54	0x3ca6a5ba	0.020342696
55	0xbe048441	-0.12941076
56	0xbe353b93	-0.17698507
57	0x3ea9fc41	0.33200267
58	0x3ca98e9d	0.020697886
59	0x3ea8a65c	0.32939422
60	0xbe930e9e	-0.2872209
61	0xbc10cc9c	-0.008837845
62	0xbe12f703	-0.1435204
63	0xbeaddcc2	-0.33957487
64	0x3e3abc66	0.18235931
65	0xbc2ba3a9	-0.010476031
66	0x3e576919	0.21036185
67	0x3c61bd96	0.013778111
68	0xbe0dcaf6	-0.13846955
69	0xbe685c00	-0.22691345
70	0xbe5c5b58	-0.2151922
71	0x3e793acb	0.24338834
72	0x3cc202a8	0.023682907
73	0xbef2a514	-0.4739157
74	0x3dd09d5b	0.10186263
75	0xbe1b78d8	-0.15182817
76	0x3fe77e90	1.8085499
77	0xbd5f37b9	-0.0544965
78	0xbe539366	-0.20661697
79	0x3e063696	0.1310676
80	0xbe205ce1	-0.1566043
81	0x3e617793	0.2201827
82	0xbd90eeba	-0.070767835
83	0x3eda9242	0.4268971
84	0x3df7ea12	0.12105192
85	0x3e4aa68d	0.19790097
86	0xbe56a2cb	-0.20960538
87	0x3df59262	0.11990811
88	0xbcd2f58f	-0.025751857
89	0x3d243ce0	0.040097117
90	0x3da899d1	0.08232463
91	0xbe8cea92	-0.27522713
92	0xbeb14832	-0.34625393
93	0xbe49b496	-0.19697794
94	0xbe30d91c	-0.1727032
95	0x3dfe4dab	0.12417158
96	0x3eb837c2	0.3598004
97	0x3d887eb4	0.06664792
98	0xbc7c5e68	-0.015403368
99	0x3e3d23fd	0.1847076
100	0x3d46e3be	0.048557036
101	0x3e4d2953	0.20035295
102	0xbe0e971a	-0.13924828
103	0x3e05cd2c	0.13066548
104	0x3e073005	0.13201912
105	0xbad98859	-0.0016596421
106	0x3ddfdb5d	0.10930512
107	0xbea2195d	-0.31659976
108	0xbc65ca0c	-0.0140252225
109	0xbdaff578	-0.08591741
110	0x3e56fce0	0.20994902
111	0xbe3fa8a1	-0.1871667
112	0x3d939327	0.072058015
113	0x3f471547	0.7776684
114	0x3e0941bc	0.13403982
115	0xbe9ae5b2	-0.3025337
116	0xbd054af0	-0.03254217
117	0x3e0e39e2	0.13889268
118	0x3d97372a	0.073835686
119	0x3deede8e	0.11663543
120	0xbe493987	-0.19650851
121	0xbe19a7f0	-0.1500547
122	0xbe0116f1	-0.12606408
123	0xbe35f9f9	-0.17771138
124	0xbd6ca4d8	-0.057774395
125	0xbe0d9d7b	-0.13829605
126	0xbdca0f22	-0.098661676
127	0xbeaa3122	-0.3324061
128	0xbc810476	-0.015749197
129	0xbe097c76	-0.13426384
130	0x3dff3184	0.12460616
131	0xbe831a00	-0.25605774
132	0xbe625095	-0.22101052
133	0x3e2270d6	0.15863356
134	0xbe1cc854	-0.15310794
135	0xbee8c98c	-0.45466268
136	0x3dcd983c	0.10038802
137	0xbdf95f2e	-0.12176357
138	0x3e022500	0.12709427
139	0x3d8de7e5	0.06928996
140	0xbcda9705	-0.02668334
141	0xbdcbe677	-0.09956067
142	0x3e9b11c9	0.30287006
143	0xbdf4d96b	-0.11955532
144	0x3df6bfe0	0.12048316
145	0x3d2cd9f6	0.04220005
146	0x3e4edcb8	0.20201385
147	0x3e3d0846	0.18460187
148	0x3b0da43e	0.0021612789
149	0xbdf78e36	-0.120876715
150	0xbd4c93e7	-0.04994574
151	0x3daac84c	0.08338985
152	0x3dda1874	0.10649195
153	0x3dd06dc3	0.101771854
154	0x3de63e80	0.1124239
155	0x3e1396c0	0.14412975
156	0x3db0bebb	0.08630129
157	0xbe24a0cc	-0.16076964
158	0xbd8e1686	-0.0693789
159	0x3e63e9c9	0.2225715
160	0xbe16d175	-0.14728339
161	0xbc199180	-0.009373069
162	0xbe6c2ce3	-0.23063998
163	0xbe65c748	-0.22439301
164	0x3cc1394e	0.023586895
165	0xbe07a820	-0.13247728
166	0x3c85c6b4	0.0163301
167	0x3e871ac1	0.263876
168	0x3cc2ddca	0.023787398
169	0x3eb1e361	0.3474379
170	0x3ce4cfc0	0.027931094
171	0x3dfc67e6	0.123245046
172	0x3e3b236d	0.18275233
173	0x3e1f7e52	0.15575531
174	0xbdb51d15	-0.088434376
175	0x3dbdd7c8	0.09269673
