param_nonquant/encoder.layers.11.norm_out.mod.bias.npy (npy, 832 bytes, 1 tensors)

array f4 [176]
000000 99 03 a3 3f c6 e6 d0 3f 3b 5a 0f 41 ff 8b 82 bf
       1.2735473 1.6320426 8.959529 -1.0198973
000010 db 9f 8d 3f ed 84 6b 3f 92 8f 9b bf bc e5 df 3e
       1.1064409 0.91999704 -1.2153189 0.4372996
000020 0a de 86 bf da c4 dc be a0 b6 4a 40 2e e0 44 3d
       -1.0536511 -0.43118936 3.1673965 0.048065357
000030 f9 9d ab 3e fa 51 93 3e 2c bb 26 40 12 c3 27 3f
       0.3351896 0.2877348 2.605174 0.6553203
000040 ec 84 11 3f f1 f0 6d 3f 3a ef 2b 3f dc a2 59 be
       0.5684345 0.9294577 0.67161906 -0.21253532
000050 74 84 08 bf 94 fe f8 3e 59 6c ee 3e 3a cf ad 3f
       -0.5332711 0.48631728 0.46567038 1.3578866
000060 6d 3a 12 c0 77 93 8d be ae db 19 40 ba 1c 57 bf
       -2.284816 -0.2765157 2.4040332 -0.8402821
000070 64 76 42 bf 4c 70 0b bf 2a 30 01 40 fe a7 f5 3e
       -0.759619 -0.54468226 2.0185647 0.4797973
000080 fe a6 85 3e c4 7c aa 3f 38 86 6c be fe 48 7d 3f
       0.26103967 1.3319325 -0.23098075 0.989395
000090 53 26 b2 be 6d 35 2f c0 e9 b8 6e 3f 0e 24 18 be
       -0.34794864 -2.7376359 0.932509 -0.14857504
0000a0 2c 33 a9 3d f7 65 f2 3f 37 05 f5 be 91 b2 8e 3e
       0.082617134 1.8937367 -0.4785554 0.2787061
0000b0 c2 bd f5 be 79 1f d9 3e 13 89 00 bf 5b 39 f2 3f
       -0.47996336 0.42406824 -0.5020916 1.8923753
0000c0 cb 44 cb 3e 6c 38 7f be b6 82 b1 3f 99 60 97 be
       0.39700922 -0.24923867 1.3868015 -0.29565886
0000d0 8c aa ea 3f 81 35 ac 3f 9a 60 b2 be 2f 86 ef bf
       1.8333297 1.3453828 -0.34839326 -1.8712825
0000e0 5e 56 18 c0 44 55 b3 3f 47 08 87 be 9a e4 9f 40
       -2.3802714 1.4010396 -0.26373503 4.9966555
0000f0 da 98 9f bf b8 38 cb bf 06 4a 28 3f d8 a0 40 3f
       -1.2468522 -1.5876684 0.6573795 0.7524543
000100 e9 07 2b 40 02 15 81 bf 09 22 30 40 c1 51 61 bf
       2.6723578 -1.0084536 2.7520773 -0.8801537
000110 bb 03 2c 3f ee 09 47 3f 48 7a 72 3f 93 52 5c bf
       0.6719319 0.77749527 0.94717836 -0.860635
000120 f7 23 d1 3f 3f 91 dc bd b0 ae 8e 3e 1f 29 09 bf
       1.6339101 -0.10769891 0.2786765 -0.5357837
000130 b1 66 4c bf d2 74 c2 3d af 5c 05 c0 fb 98 1f 3f
       -0.79844195 0.09494938 -2.083782 0.62342805
000140 dd bb b3 3f d9 da 9e bf 4e c2 81 3f 9a 95 b9 bf
       1.4041706 -1.2410537 1.0137422 -1.449878
000150 c0 6e 8a 3f d1 06 42 bf a9 a0 f8 bf c7 a5 90 bf
       1.0815048 -0.7579165 -1.942403 -1.1300591
000160 a0 95 27 bf 2a 14 2b 3e bc 39 c3 3f 22 46 ea 3f
       -0.65462685 0.1670691 1.5251994 1.8302653
000170 a7 d8 0e c0 cc 56 c0 3f 08 35 9f 3e 35 0e be bf
       -2.2319734 1.5026488 0.31095147 -1.4848086
000180 b7 dd c4 bf 59 d4 d6 bf b2 9d 52 3f c8 3c bf 3f
       -1.5380162 -1.6783553 0.82271874 1.4940424
000190 58 c5 85 bf 70 70 b8 3d 08 91 72 bf da a8 96 3f
       -1.045085 0.09005821 -0.9475255 1.177028
0001a0 5e b6 96 3e d2 24 c8 bf 6a 0a 11 bf 04 38 00 c0
       0.2943601 -1.5636237 -0.56656516 -2.003419
0001b0 a2 a2 09 bf d2 83 00 3c f6 de 5b 3e 2a 82 c8 3f
       -0.5376378 0.007843928 0.21471772 1.5664723
0001c0 ab 01 87 bf dc e6 53 3f 15 c8 04 bf aa 91 8a 3f
       -1.0547384 0.8277414 -0.518678 1.0825703
0001d0 a1 c0 13 40 36 ce 2b 3f 1e 6b 66 bf b5 ea d5 bf
       2.3086321 0.6711153 -0.900072 -1.6712252
0001e0 a0 ba 96 bf 5e bc ae 3f 25 13 ed 3f e9 3b 15 bf
       -1.1775703 1.3651235 1.8521467 -0.5829454
0001f0 4a 6c 2f 3f 9c 3d 91 3f 06 b6 c8 3e d4 20 34 3f
       0.6852461 1.1346927 0.39201373 0.7036259
000200 4f 1e 04 40 5e 84 68 3f 22 f7 3a 3e 5d a2 7f bf
       2.06435 0.90826976 0.18258336 -0.9985712
000210 80 36 09 3f b2 b9 65 3f 91 8b c0 bf 88 d7 c5 bf
       0.53598785 0.89736474 -1.5042592 -1.54564
000220 cf 22 23 c1 78 fb 91 3f 94 a3 32 c0 c3 14 0f bc
       -10.195998 1.1404867 -2.791234 -0.008732977
000230 a8 fa a4 3f 3a 63 cc 3e 18 13 b7 3e 8a f1 21 3f
       1.2888994 0.39919454 0.35756755 0.63259184
000240 16 68 1c 40 9e ae 92 3f 24 f6 c6 bc 5e ff 04 c0
       2.443853 1.1459539 -0.02428729 -2.0780864
000250 7f c2 d9 3e 43 74 a4 3e 2a 9a 21 bf ea e7 39 3d
       0.425312 0.3211995 -0.6312586 0.045387186
000260 4c ec 2c c0 96 56 f8 3d 46 e2 0b 3f 1a ba aa be
       -2.7019224 0.1212589 0.5464214 -0.3334511
000270 ac 61 a4 3f 21 74 00 40 88 d5 6a bf 4b 81 f9 bf
       1.2842307 2.007088 -0.9173207 -1.9492582
000280 47 b7 0c 3f 25 01 b4 bf 2a 26 5a 3e a8 e2 00 c0
       0.5496716 -1.4062849 0.21303621 -2.013834
000290 42 6b 10 3f af 42 d9 be 1a 9e b4 be 1b 1a b6 3e
       0.5641366 -0.42433688 -0.35276872 0.35566792
0002a0 86 a4 d5 3f d6 5f ed be 44 8e 48 c1 b4 54 29 be
       1.6690834 -0.4636218 -12.534733 -0.16536218
0002b0 8c b2 f1 3f 4e a8 7e 3f d8 c0 d7 bf 4e 35 1c bf
       1.8882613 0.9947556 -1.6855726 -0.61018836
