param_nonquant/encoder.layers.3.norm_feed_forward2.mod.bias.npy (npy, 832 bytes, 1 tensors)

array f4 [176]
00000000: 2801 433f ba68 b23e 09ea 503e 160a 5bbe
00000010: b47c 6e3e 400c 09be 6051 b1b9 75bf 463d
00000020: 4974 ebbd dff1 c63e bbe3 983d 2c56 b8bb
00000030: ca12 4abb 7ae7 323d dc73 a3be aadd 5e3f
00000040: 3053 b2bb 5afc 283c 8011 073e d132 6b3c
00000050: 1889 01bf 7d3f 51be 9c2a f03e b23b 8abc
00000060: b182 7cbe ecb4 3dbe 8f92 59bd 288f aabc
00000070: 0662 06bb 1f52 8cbc 0861 86bc 1eef 2a3d
00000080: fcd8 4bbb 340e f03d e4f0 10bf 7068 ce3c
00000090: de0b a0bc e236 b13c 0790 993b 5c11 d43c
000000a0: 7573 143d 9ab4 42bd 17cc 4dbd 7dc9 b2bd
000000b0: 2498 d53c 1ef2 9d3d 4a6c 82bf 7a9d 783f
000000c0: c234 65be b6ff 143e 1c46 67bb daa2 02be
000000d0: b128 98bd aa9e 4a3e 78fd 813b 38b7 5b3e
000000e0: 4e11 34be ebcd 12bd 91b8 a43d 475a 653d
000000f0: 1916 1b3d bdce 953d 1877 87bd 0c18 c4be
00000100: 5591 b93e 566e 633d 6a59 803d 313e 9a3d
00000110: 4549 39bd 47a6 b6bc 8933 03be 8d90 d73d
00000120: 25ee 483c e9c5 f6bd deaf 683d 5a9c 92bc
00000130: 019c c53d d202 993d c91f a53d 6c44 4c3b
00000140: 1825 1dbe 4fa2 b33d 7488 80be 70c2 adbd
00000150: 90e6 9a3d 03bb 21bd bdca 68bc 52f0 c43d
00000160: bae2 12bc 1ead c13d 6504 273f 6486 d9bc
00000170: 4196 b5be 9857 a93d e86b 653c d084 6b3e
00000180: 0701 893d e129 433c 458d 49be 3965 6c3d
00000190: 92b0 72bd 82ba 563c 6d48 a03d c046 103e
000001a0: b60b 28bc 932d f4bd fc4d a23d a350 813d
000001b0: 60c8 bb3d db00 c4bd 28a9 ea3c eadf 22bd
000001c0: 580e 1c3e 54b8 9b3d 8451 afbd 75b0 0f3e
000001d0: e245 74bd b0ca 8b3d 448e 44bd 779b 993c
000001e0: 5599 a8bb 8250 493c da01 dfbd 4a17 153f
000001f0: 9421 5c3f e90a e4bc 7754 463e aa08 9c3d
00000200: f696 b43e 0346 e43d 5d86 573d fb13 06be
00000210: b03c 84bd 7251 e2bc 3ef5 273d 919d f83d
00000220: 40ad 603f 5f9a c8bb 12ee 2b3d 12da e83e
00000230: 5360 c53c b331 8a3c c3c4 eb3d 1c1d 28be
00000240: e306 32bd 6621 2abd 8c54 bf3d 40b4 d13d
00000250: ee59 9cbc 6ea7 d3bd c153 cfbd 9f2e b33d
00000260: 7d04 cc3d bb06 5fbc 92ce c8bd 1f96 0dbd
00000270: bf20 963d 985c 71bd 1af0 e43c bead 02bf
00000280: 8b23 edbd 58e6 d8bd 8234 103d 96a2 af3d
00000290: e164 553f d6f5 c3bd 88dd 753e b0cc 353c
000002a0: e229 3dbd 50e3 83bd 00df 443c e463 c73d
000002b0: 9409 e9bb 0af9 d0b9 55af c23c 1ab1 81bd
0.7617364 0.34845525 0.20401777 -0.21390566 0.23289758 -0.13383579 -0.000338207 0.04852243
-0.11496789 0.38856408 0.07465311 -0.005625507 -0.0030833953 0.043677785 -0.3192433 0.8705698
-0.0054420456 0.010314072 0.1319027 0.014355377 -0.50599813 -0.20434375 0.46907508 -0.016874168
-0.2465923 -0.18526047 -0.053118285 -0.020820215 -0.0020505204 -0.017129002 -0.01640369 0.041731946
-0.0031104675 0.11721459 -0.5661757 0.025196284 -0.019536909 0.021632615 0.004686359 0.025887184
0.03624292 -0.047535516 -0.050243463 -0.08729837 0.026073523 0.07712196 -1.0189297 0.9711529
-0.22383407 0.14550671 -0.0035289591 -0.12757435 -0.07429636 0.19787088 0.0039669834 0.21456611
-0.17584726 -0.03584091 0.08043016 0.0559943 0.03786287 0.07314823 -0.06614512 -0.38299596
0.36243692 0.055525146 0.062670544 0.07531393 -0.04523589 -0.022296084 -0.12812628 0.10525618
0.012263809 -0.12049467 0.056808345 -0.01789682 0.09648896 0.07471241 0.08062703 0.0031168712
-0.15346181 0.08771192 -0.25104105 -0.08484352 0.075635076 -0.03948499 -0.014208493 0.0961615
-0.008965189 0.094568476 0.6524108 -0.02655334 -0.35466197 0.0826866 0.014002778 0.22999883
0.06689649 0.01191184 -0.19682796 0.05771372 -0.05925042 0.01310599 0.07826314 0.14089489
-0.010256698 -0.11922755 0.079250306 0.06314208 0.09169078 -0.09570476 0.028645113 -0.039764322
0.15239847 0.07603517 -0.0856047 0.14032157 -0.059636958 0.06825769 -0.047987238 0.01875089
-0.0051452317 0.012287261 -0.10889025 0.5823866 0.85988736 -0.027837234 0.19368158 0.0761884
0.35271424 0.11146166 0.052618373 -0.1309356 -0.06456888 -0.027626727 0.041005366 0.121394284
0.8776436 -0.006121918 0.04197509 0.45478874 0.024093783 0.016869402 0.11512139 -0.16417354
-0.0434636 -0.041535757 0.09342298 0.10239458 -0.01908585 -0.10334669 -0.10123397 0.08749127
0.099617936 -0.0136124445 -0.09805025 -0.034566995 0.073304646 -0.058926195 0.02794652 -0.5104636
-0.11579045 -0.105908096 0.035206325 0.08575933 0.83357054 -0.09568374 0.24010289 0.011096165
-0.04618252 -0.06439841 0.012016058 0.097358495 -0.0071117375 -0.000398584 0.023765245 -0.063326076
