param_nonquant/encoder.layers.7.feed_forward1.linear2.bias.npy (npy, 832 bytes, 1 tensors)

array f4 [176]
0	0x3edf969b	0.4366959
1	0x3f05f1aa	0.52321875
2	0x3fafcb4b	1.3733915
3	0x3e1cf276	0.15326867
4	0x3f46aab9	0.7760425
5	0x3d248762	0.040168174
6	0x3e4a10ba	0.19732943
7	0x3f544f3e	0.82933414
8	0xbeeeb80e	-0.46624798
9	0xbda354a2	-0.07975127
10	0x3f2aa318	0.6665511
11	0xbf75f8d8	-0.9608283
12	0x3f5e2078	0.86768293
13	0xbf2d3184	-0.6765368
14	0x3f24dd2d	0.6439999
15	0x3ee39d2b	0.44455847
16	0xbe3d8516	-0.185078
17	0x3e9cb23e	0.30604738
18	0x3c7ba99f	0.015360265
19	0xbee52db3	-0.44761428
20	0xbebd6920	-0.36994267
21	0x3d0db2af	0.034594234
22	0xbf8e86f1	-1.1134931
23	0x3fb454cd	1.4088379
24	0xbf0aa591	-0.54158884
25	0x3f497229	0.7868982
26	0x3f0e9572	0.55696785
27	0xbf36b920	-0.7137623
28	0x3e527bb6	0.20555004
29	0x3f46e667	0.77695316
30	0xbf6fd66b	-0.9368655
31	0x3fc8bfac	1.5683494
32	0x3f32e09a	0.69873965
33	0x3f66a4e6	0.90095365
34	0xbdfa81b0	-0.12231767
35	0x3e9467c0	0.28985405
36	0x3e8b143e	0.2716388
37	0xbe9e012e	-0.30860275
38	0x3f8ee77f	1.1164397
39	0x3f17d172	0.59303963
40	0xbf0d2c65	-0.55145866
41	0x3f767cc5	0.96284133
42	0x3e2c17ec	0.16806
43	0x3dbb9ca1	0.09160734
44	0x3edb00d2	0.42774063
45	0x3f866101	1.0498353
46	0x3e92b52e	0.28653854
47	0x3f94d263	1.1626705
48	0xbd58bbf4	-0.05291362
49	0xbec00cfc	-0.37509906
50	0xbfa8e8bd	-1.3196026
51	0x3f137b3a	0.57609904
52	0x3f1e8401	0.6192017
53	0x3e1457d3	0.14486627
54	0x3e0925ae	0.1339328
55	0xbf3ed648	-0.7454572
56	0xbfd52921	-1.6653177
57	0xbeecfde5	-0.46287456
58	0xbdd37d5e	-0.10326646
59	0x3fb511a6	1.4146011
60	0x3ec3fe34	0.3827988
61	0xbe3f2ff4	-0.18670636
62	0xbf84fbde	-1.0389364
63	0x3f6bad0e	0.92060935
64	0x3f1902d1	0.5976992
65	0x3eedb2e8	0.46425557
66	0x3fad7644	1.3551717
67	0xbe46d2e0	-0.1941638
68	0xbf19fe0f	-0.6015329
69	0xbe1ca3b7	-0.15296827
70	0xbba85af9	-0.005137798
71	0xbf10c46a	-0.56549704
72	0xbf08c77a	-0.5342938
73	0xbeba08f4	-0.36334956
74	0x3ef5f5b0	0.48039007
75	0xbf93c579	-1.1544639
76	0xbf954cef	-1.1664103
77	0x3e7b2af6	0.24528107
78	0x3e170298	0.14747083
79	0x3f393033	0.7233917
80	0xbeb9a9a5	-0.3626224
81	0x3e6d738e	0.23188612
82	0xbf84843e	-1.0352857
83	0x3de34548	0.11097199
84	0xbf37eadc	-0.7184274
85	0xbf7c0a6c	-0.984534
86	0xbc427d99	-0.011870765
87	0x3e4bf26a	0.19916692
88	0x3f7274d4	0.94709516
89	0xbeb9f49b	-0.36319432
90	0xbecb0388	-0.39651132
91	0x3e931486	0.28726596
92	0xbe74c182	-0.23901942
93	0x3f3efb47	0.7460217
94	0xbf16ef6b	-0.5895907
95	0xbdfa439a	-0.12219925
96	0xbeeb1618	-0.45915294
97	0x3ed8b50c	0.42325628
98	0xbe8a503a	-0.27014333
99	0x3edd0ae0	0.4317236
100	0xbf10ae1c	-0.5651567
101	0xbe07d6f0	-0.13265586
102	0xbefb50b8	-0.4908502
103	0x3f95a1b9	1.1689979
104	0x3ea1fa44	0.3163625
105	0xbe991e88	-0.29906106
106	0xbecfa1ac	-0.40553033
107	0xbea5a8aa	-0.32355243
108	0xc00a8d3a	-2.1648698
109	0x3fb666a6	1.4250076
110	0xbeb90a3c	-0.3614062
111	0x3f59c8c4	0.8507197
112	0xbca56951	-0.02019182
113	0x3ec93bcb	0.3930343
114	0xbeb3ef92	-0.35143715
115	0xbd45096b	-0.048104685
116	0x3f43d135	0.764911
117	0xbee0436c	-0.4380144
118	0xbfe1e484	-1.7647862
119	0xbe81758e	-0.25285
120	0xbf12caec	-0.57340884
121	0x3ee61cb2	0.44943768
122	0xbdcfd765	-0.10148505
123	0x3f05556e	0.5208348
124	0x3fc9d4ac	1.5768027
125	0xbeb3d2ba	-0.3512171
126	0x3f6e37b8	0.9305377
127	0xbebd3a6a	-0.3695863
128	0x3efcdffa	0.4938963
129	0x3f29981d	0.6624773
130	0x3f718c72	0.9435493
131	0xbd9c00b7	-0.07617324
132	0xbf6715ae	-0.90267456
133	0x3fe0c1a9	1.75591
134	0xbeb8bb78	-0.36080527
135	0xbf173a65	-0.5907348
136	0xc02c5958	-2.692953
137	0x3f803082	1.0014803
138	0xbf8c6a68	-1.0969973
139	0xbed2a7ca	-0.41143638
140	0x3fa855f4	1.3151231
141	0x3daafb6a	0.08348735
142	0xbf558eec	-0.83421206
143	0xbf61ee74	-0.88254476
144	0xbe0191b7	-0.12653242
145	0x3ece930f	0.40346572
146	0xbea25401	-0.31704715
147	0x3c5ed2ef	0.013600095
148	0x3dfdc455	0.12390963
149	0x3ecc09d4	0.39851248
150	0xbf948a84	-1.1604772
151	0xbf02687b	-0.50940675
152	0xbe81515a	-0.2525738
153	0xbf804510	-1.0021076
154	0x3e8c7383	0.27431878
155	0xbe9512e6	-0.2911598
156	0xbeddcc6d	-0.43320027
157	0x3f270240	0.6523781
158	0xbda76dff	-0.08175277
159	0xbf7345bd	-0.9502829
160	0x3e982f77	0.29723713
161	0xbf3261f5	-0.6968072
162	0x3d9dddd7	0.07708328
163	0xbd9e68e7	-0.07734852
164	0x3eb6b7de	0.35687155
165	0x3edf3929	0.43598297
166	0xbf9224e4	-1.1417508
167	0xbe3d61fa	-0.18494406
168	0xbf1ef547	-0.62093014
169	0xbeaba5f6	-0.33525056
170	0xbfb2d753	-1.3971962
171	0xbf0701c9	-0.527371
172	0x3dacc296	0.08435552
173	0xbf9c32a3	-1.2202953
174	0xbeacb19d	-0.33729258
175	0x3da301e2	0.079593435
