param_nonquant/encoder.layers.15.conv.pointwise_conv1.weight.npy (npy, 247936 bytes, 1 tensors)

array f4 [352, 176, 1]
00000000: 6236 afbe 98e6 0abf d02f ce3e ccc4 fdbc
00000010: 5116 0ac0 4c1a 91be 2c9f 653f cc7e 29bf
00000020: 48c2 79bd 25dc 963f da39 85bf 9e81 853c
00000030: 6aac d53f 2535 203e 8c08 953e 18fe dcbf
00000040: 9f56 983f 21b8 123f c631 f9be b130 f23e
00000050: 7a75 7b3e a2e0 d9bf 8d81 353e 8013 b7be
00000060: d4ec 7abe 4c93 d73f 22d3 1a3e 74a3 3cbe
00000070: b62f 193f d6e2 143e ed14 c53f 26e3 5f3f
00000080: df20 253f 8789 353f 27f6 9ebe 8f03 603f
00000090: e848 e53f ab11 90bf 5bb7 a1be 2ba5 0e3f
000000a0: 0990 cc3f 35e5 9bbf 77e5 ea3e c635 22bf
000000b0: 3508 e33f 264e 17bf 2093 bbbe 2a47 4abe
000000c0: 1d48 96be bebe 5cbf 1d28 27bf 9a6c 18bf
000000d0: fffa 78bf c305 71be 2877 e53f ba0d e3bd
000000e0: 5a94 f73d 93e4 bf3e 1f1e 97bf 2cc4 123f
000000f0: f18f 103f 037b f93f 4c41 abbf 3801 2ebf
00000100: 020c d43f 6f97 133f b004 eebe 0150 c23f
00000110: 3881 5f3f a4a5 16bf e046 f33e 9661 af3f
00000120: 2206 f63e e603 b4be e028 27bf 8c6d 53bf
00000130: f2b8 db3f 6b6c a93b a508 65be fed3 a23f
00000140: 3beb 9bbe 46b4 853e f6b2 993f 97bd 33bd
00000150: d523 8cbf 2d91 3c40 9c4e 2b40 d9f8 2c3e
00000160: a8e3 5b3e fd25 22bf f129 a5be ff48 a03f
00000170: ab37 863f 9305 383f 57ca 2f3f 7244 233f
00000180: 10c5 0fbf 4aef 503f d415 153f a79f 5fbb
00000190: f3e8 15bf 82ea 5a3e a786 be3f ff7d 8ebe
000001a0: a97d a1bf 73ed 1dbe a522 b7be a1c3 b73f
000001b0: 4d8d 283f a687 59bd 8819 97bd f4ba 373f
000001c0: 2707 c43f 401e 78bf 1cc0 4c3f 5680 11bf
000001d0: 75bd 8a3f 2e45 05bf ac93 61bf 8829 623e
000001e0: 8034 ba3d 686f d33e 92e3 f8bf 2c14 3ebf
000001f0: d548 7e3f eb1e f93d 34ae 16bf 67eb 42bf
00000200: 705f 3ebf 7462 2a3f 87c2 723f e54e 7c3f
00000210: 1a33 cb3f 0cbe 65bf f3c4 d83f 8942 613e
00000220: 94ba 973f c134 86bf 0dd7 313e fe15 61be
00000230: 767f b53e af82 d73f ca91 993e c0b3 8abe
00000240: a6a2 c63e b432 063d 283b 363f 0e0f 3dbe
00000250: fe44 6d3b b42e 873d 1e1c 773f 4e38 313f
00000260: 571f 7ebf 24a0 acbf 10e8 ff3e ab87 d53e
00000270: 3cfd 18bf 961b c63e 65af 86bf 5e4d 66bf
00000280: 9aa2 b23f 965d 7d3c a864 1140 1b47 5dbf
00000290: f757 e63e 5c51 0cbf 834c 6dbf fe7d 3f3f
000002a0: 4c9c ec3e 84e3 6a3f 890f 993e 92eb 483f
000002b0: f886 b33f 1b6b de3f 9ad7 5e3e c247 7ebf
000002c0: 7b47 483f 8d04 1dbf 880a 7e3e cc4f 933f
000002d0: 3c7c 883f 5ce8 a43c ee61 4dbf 82de aa3f
000002e0: 6734 fabd 8b5b b23f ffaa 6abf 49f6 97be
000002f0: d46e 263e 2312 613f 6ef7 95bf fbe0 06bf
00000300: 7750 f4be e4c1 98be bad2 27bf 53ea e5be
00000310: 116b 72bf a418 2dbf 7047 fe3e 40e2 a1bf
00000320: 7e6a 93bd 0088 5abe 7c88 f2be 78f6 83bf
00000330: f9ca 7e3f d2a6 8e3e 1012 5ebd f4d9 0dbf
00000340: 50dc 933c 6753 6ebf c66f 36be 5f35 8c3e
00000350: 559e 793e a4f1 ecbf e1ec 993e b00c 9abe
00000360: 1eb2 233e 565e 66be 38d2 543f b162 4abf
00000370: f695 8bbd c0f2 20be 9968 c7be 20b5 6f3e
00000380: e28a 9d3f 4dd7 3c3f 6502 833f 4233 99bf
00000390: 2db8 02bf 22f0 bbbe 79e1 9a3f f43e a1bf
000003a0: cc4e 6b3e 1b2e 7cbf d439 f9be a380 28bf
000003b0: 9fee 7ebf 36b6 7f3f d658 febd b040 303f
000003c0: 51c2 433d 4676 b6bf fe03 313e f2af 6d3e
000003d0: d3b3 debf e295 7e3c abe0 8fbf 83b1 3abe
000003e0: 81f8 1b40 f0e4 c33f 279d 87bd a6db 22bf
000003f0: 68ac 513f c4c6 513f a530 793f aa58 ae3e
-0.34221178 -0.5425811 0.40270853 -0.03097763 -2.157612 -0.28340375 0.89696 -0.662091
-0.060976297 1.1785933 -1.040828 0.016297158 1.6693242 0.15645273 0.29108083 -1.7265043
1.1901435 0.5731221 -0.48670787 0.47302774 0.24556533 -1.7021677 0.17725201 -0.35757065
-0.24504405 1.6841826 0.15119603 -0.18421727 0.59838426 0.14539656 1.5397011 0.87455976
0.6450328 0.70912975 -0.31047174 0.8750543 1.7912874 -1.1255392 -0.31585202 0.55720776
1.5981456 -1.2179323 0.45878193 -0.633633 1.773688 -0.5910362 -0.36635685 -0.1975371
-0.29351893 -0.8622855 -0.65295583 -0.5954071 -0.9725799 -0.23537354 1.7926989 -0.110866025
0.12088843 0.37479076 -1.1806067 0.57330585 0.5646964 1.9490665 -1.3379302 -0.6797061
1.6566164 0.57652944 -0.4648795 1.5180665 0.8730655 -0.588465 0.4751501 1.3701656
0.48051554 -0.35159224 -0.65296745 -0.8258903 1.7165816 0.005170395 -0.22366579 1.2720945
-0.30452904 0.261141 1.200774 -0.04388198 -1.0948435 2.9463608 2.676673 0.16891803
0.21473563 -0.63339216 -0.3225856 1.2522277 1.0485739 0.71883506 0.6866812 0.63776314
-0.5616007 0.81615126 0.5823643 -0.003412226 -0.5855858 0.2137852 1.4884843 -0.27830502
-1.2616473 -0.15422611 -0.3576862 1.4356576 0.6584061 -0.05310788 -0.073779166 0.7176964
1.5314683 -0.9692116 0.79980636 -0.5683645 1.0839068 -0.52058685 -0.88115954 0.22086155
0.09092045 0.41295934 -1.9444449 -0.7424953 0.9932988 0.121641 -0.5885956 -0.76140445
-0.74364376 0.6655648 0.94828075 0.98557884 1.587497 -0.89743114 1.6935104 0.21998037
1.1853814 -1.0484849 0.17367192 -0.21981046 0.35448807 1.6836756 0.2999404 -0.27090263
0.38795966 0.032763198 0.71184015 -0.18462774 0.0036204453 0.06600705 0.9652728 0.6922654
-0.9926657 -1.3486371 0.49981737 0.4170507 -0.59761405 0.3869292 -1.0522276 -0.899618
1.3955872 0.015464207 2.2717686 -0.86436623 0.44988987 -0.54811645 -0.9269487 0.74801624
0.46212995 0.9175341 0.29894665 0.7848445 1.4025564 1.7376436 0.21761933 -0.99328244
0.7823407 -0.6133507 0.24808705 1.1508727 1.0662913 0.020130329 -0.80227554 1.3349154
-0.12217026 1.3934187 -0.9166717 -0.29680088 0.16253215 0.879183 -1.1716135 -0.5268704
-0.4771764 -0.29835427 -0.6555592 -0.44905338 -0.9469462 -0.67615724 0.49663877 -1.2647171
-0.07198046 -0.21340942 -0.47369754 -1.0309591 0.9952846 0.2786165 -0.054216444 -0.55410695
0.01804939 -0.9309601 -0.17816076 0.2738447 0.24376805 -1.8511243 0.30063537 -0.30087805
0.15985915 -0.22496924 0.8313327 -0.7905684 -0.06815712 -0.15717602 -0.3894699 0.23408937
1.2308009 0.7376602 1.0235106 -1.1968768 -0.5106228 -0.36706644 1.2100059 -1.2597337
0.22979277 -0.9850785 -0.48676932 -0.65821284 -0.99582857 0.99887407 -0.12419288 0.68848705
0.047792736 -1.4254844 0.17286679 0.23211649 -1.7398628 0.015538665 -1.1240438 -0.18231778
2.4370425 1.5304241 -0.06621771 -0.63616407 0.81903696 0.8194392 0.9733985 0.3405202
