param_nonquant/encoder.layers.3.self_attn.pos_bias_u.npy (npy, 832 bytes, 1 tensors)

array f4 [4, 44]
0.20021883 -0.051104352 0.13958335 -0.05370453 0.05247646 0.059228286 0.08013463 0.046803355
-0.14696123 -0.0041977824 -0.15258169 -0.023894873 0.007448632 -0.033297412 0.24420783 0.00092248304
-0.10023022 0.00069355214 -0.0532113 -0.013058702 0.056461737 -0.004303104 0.029299762 -0.09743105
-0.015188692 0.05169548 -0.038088776 -0.00034901826 -0.02368523 -0.22278708 1.2057927 0.022891112
0.045635726 0.0249153 0.19560649 -0.04001827 0.029540032 0.02920737 0.02299985 0.014083343
0.25444102 -0.04570453 0.028216425 0.35610467 0.013829055 -0.0102230385 0.17740111 0.006771199
0.014646855 0.02264967 0.007033012 -0.04056681 -0.08295128 -0.24233791 0.006147816 -0.13587198
0.006458368 -0.26655847 0.020454187 -0.17662458 -0.101140946 -0.056551762 -0.025001999 0.00011644466
0.09029989 0.11876181 -0.69561195 0.06713051 0.10867035 -0.115566716 0.08497059 -0.05196684
-0.0036006202 0.050972905 0.039115574 -0.007110693 -0.056386624 -0.07486984 0.0967791 -0.037284948
-0.020715317 0.016453741 0.025585763 0.087593555 0.10917655 0.05900662 -0.110195756 0.008311166
0.06859239 -0.003182009 -0.035302576 -0.07416149 0.03766105 0.027378002 -0.033854663 -0.017161198
0.09738474 0.015236963 0.073024884 -0.057190776 0.1399627 -0.07222655 -0.07151141 0.18904573
-0.026613554 0.12932877 0.24357183 0.046766773 -0.045317866 -0.11060548 0.044929687 -0.10510661
0.015117333 -0.13662651 -0.060437348 0.1098438 -0.009885201 -0.08862318 0.008002899 -0.038634323
-0.024148732 0.012047128 0.14260301 -0.0790187 0.90301275 0.027582182 0.059950415 -0.09566084
-0.044077218 0.072332785 0.056068454 -0.16060214 -0.016569585 -0.24882749 0.028003622 -0.30811584
-0.10122812 0.036978252 0.10814983 0.030276671 0.09227888 0.112430066 -0.22288303 0.11395221
0.061327375 0.16230829 -0.021725932 0.002699877 -0.09887425 -0.24916857 -0.0835229 -0.1802748
0.020584324 -0.0044935932 -0.059567597 -0.24804987 -0.119272344 0.092304334 0.06399881 -0.0036669602
0.040019393 0.13301316 0.12327969 -0.05411717 -0.16537112 0.036238104 -0.0010922384 0.073607355
-0.11956715 -0.0010863967 -0.08078165 0.21512459 -0.08169888 0.22558382 0.07664032 -0.35915762
00000000: 2a06 4d3e cc52 51bd f0ee 0e3e 48f9 5bbd
00000010: 8ef1 563d 5c99 723d a01d a43d e0b4 3f3d
00000020: 017d 16be 8d8d 89bb 603e 1cbe 2ebf c3bc
00000030: a713 f43b de62 08bd 9e11 7a3e cad2 713a
00000040: 8045 cdbd 7fcf 353a 18f4 59bd 2bf4 55bc
00000050: 6c44 673d 0d01 8dbb 0e06 f03c ee89 c7bd
00000060: fed9 78bc a4be 533d fa02 1cbd 70fc b6b9
00000070: 8707 c2bc 4c22 64be 6a57 9a3f 2486 bb3c
00000080: 87ec 3a3d 2c1b cc3c 114d 483e 33ea 23bd
00000090: f0fd f13c 4b44 ef3c 2e6a bc3c d2bd 663c
000000a0: 1846 823e ac34 3bbd 2226 e73c 5a53 b63e
000000b0: 4393 623c 887e 27bc a3a8 353e efe0 dd3b
000000c0: 5df9 6f3c cd8b b93c 2e75 e63b 6229 26bd
000000d0: 5ce2 a9bd 6e27 78be 9e73 c93b 0622 0bbe
000000e0: b8a0 d33b 5a7a 88be 8a8f a73c 13dd 34be
000000f0: fc22 cfbd d2a2 67bd fed0 ccbc c033 f438
00000100: 26ef b83d 6439 f33d a013 32bf b97b 893d
00000110: 8f8e de3d 3eae ecbd 1005 ae3d 2edb 54bd
00000120: 62f8 6bbb f7c8 503d a737 203d d100 e9bb
00000130: a9f5 66bd 5c55 99bd 1f34 c63d 1ab8 18bd
00000140: 2bb3 a9bc ffc9 863c 3c99 d13c 4064 b33d
00000150: f497 df3d edb0 713d 50ae e1bd 8f2b 083c
00000160: 2b7a 8c3d 4189 50bb 6f99 10bd fbe1 97bd
00000170: 7942 1a3d d547 e03c 30ab 0abd a495 8cbc
00000180: a771 c73d 74a4 793c 128e 953d e040 6abd
00000190: 6252 0f3e 83eb 93bd 9374 92bd 3495 413e
000001a0: ab04 dabc c36e 043e e56a 793e 848e 3f3d
000001b0: 3a9f 39bd 2085 e2bd 3108 383d 2242 d7bd
000001c0: b1ae 773c d2e7 0bbe 278d 77bd c9f5 e03d
000001d0: 8af5 21bc 1280 b5bd 971e 033c 063f 1ebd
000001e0: 90d3 c5bc 5161 453c 8606 123e 8ed4 a1bd
000001f0: d82b 673f 07f4 e13c 918e 753d d5e9 c3bd
00000200: 508a 34bd 3623 943d 09a8 653d e374 24be
00000210: f0bc 87bc a2cc 7ebe da67 e53c 5cc1 9dbe
00000220: b050 cfbd 8276 173d a87d dd3d c806 f83c
00000230: b6fc bc3d bc41 e63d 733b 64be c75f e93d
00000240: 6a32 7b3d 2534 263e 95fa b1bc 6bf0 303b
00000250: 957e cabd 0c26 7fbe 0e0e abbd f599 38be
00000260: 75a0 a83c fe3e 93bb 27fd 73bd c900 7ebe
00000270: 0f45 f4bd 0e0a bd3d cf11 833d 6251 70bb
00000280: 60eb 233d 9a34 083e 107a fc3d f7a9 5dbd
00000290: 0c57 29be 686e 143d 7029 8fba 74bf 963d
000002a0: 9fdf f4bd 6d65 8eba da70 a5bd 9f49 5c3e
000002b0: be51 a7bd 72ff 663e 9af5 9c3d 82e3 b7be
