param_nonquant/encoder.layers.8.norm_feed_forward2.mod.bias.npy (npy, 832 bytes, 1 tensors)

array f4 [176]
00000000: 6a81 423e 96d8 8a3d 9eb9 fc3d 25e4 15be
00000010: 17d3 df3d 1ceb 13bd 361a debe e84b 7b3c
00000020: a102 103d 8db0 a3bc 6eb4 833f 8ef2 53bd
00000030: ced8 b2bd fc7d f93c 114d cebd 8a60 e63c
00000040: 00c2 e0bb af67 bfbd 6e87 a53d aff5 90bd
00000050: a88b 0fbd fe50 ed3d 16df e4bc c188 b4bd
00000060: 6d2a eebd b488 483b 25ed abbd 306c e0bd
00000070: f83a aebd 7880 b53d ebe2 843d 58ad 91bc
00000080: c282 233c db88 5f3c f076 89bd 74db b4be
00000090: 8577 b6bb cd77 13bf 39e6 bb3d 3d83 843d
000000a0: 4433 d6bd bf3a 9c3e d17e 953c eb8a 8dbd
000000b0: 0004 cebd 3c08 37ba 6ce1 64bd e872 c73a
000000c0: 59c4 33be c9d5 1d3b ae39 dc3c 6686 00bc
000000d0: bb41 74bd 0873 ad3e 08c8 8bbd 8d21 813d
000000e0: 8a95 80bd 56d9 f13b c502 21bd aa1d dd3f
000000f0: d223 fb3c 71bd cebc 95c6 61be 137d 11bc
00000100: 7679 41bd c1ef 3a3d 0e7a 113e c498 70bc
00000110: 4d01 be3d 804c 2fbc a394 3a3d 90b6 7cbe
00000120: 03b8 c9bd d7e6 98bd 6ef8 0e3e a8e6 6fbc
00000130: 7cdc 58be bc44 3bbd e108 31be beff 183d
00000140: d77a a5bd 852f 1dbf 4835 25be fbc5 ac3c
00000150: af4f f53c f43b 07bd 1a73 50be 636f 62bc
00000160: 6831 e83c 2732 ef3d e3f2 973c 20a8 7e3e
00000170: b118 c8bd 1d93 35be 62b9 38be c5e8 823d
00000180: 44fd aebd 2af3 80bd 2a0d c83c aab7 03bb
00000190: c7a0 bfbc 26b7 01bd 9a17 1abc 49ca babd
000001a0: f3ca 3e3d c9af 58be 384b 243d cc35 16be
000001b0: 8c25 69bf 4687 bcbb 8be4 debd 61c3 d4bb
000001c0: 5e91 f7bd ddb5 3e3d 6acc 223b cc56 b7bd
000001d0: 4cdb f73e cc6d ccbc c961 4a3c d4b2 ebbe
000001e0: 5460 77bd 5457 2c3e 5c31 5ebd 79f2 4b3e
000001f0: 6449 283f 06a6 1cbd 542e 993c 9df5 c8bd
00000200: 020f 323f ffde dcbc 6ed5 35bc 0ee3 1fbf
00000210: 0500 b23d 76c4 6f3c 3026 9c3c f17d a4bc
00000220: 1f71 4e40 6914 3e3c 3da1 13be f875 0dbe
00000230: a45b fd3b 814a c3bc 244d 7c3c faa0 06bd
00000240: abfb dc3c 6ea8 043b a0d8 9dbd 969a 8fbd
00000250: 359b 813c 2212 833d 73cb 28be 0646 1ebe
00000260: 67ef 16be b2a0 6abe 0afa 06be a3db efbd
00000270: 021d 043e b118 633d 68e9 86be 3f4d 9cbd
00000280: 4d3d c7bd 9bbd 0cbe ef65 f03d a2b8 563b
00000290: b659 8c3d 98f5 abbd 7f93 69bc 3809 a0bd
000002a0: a251 20be fc63 2a3d 3708 c23d b13c 39bd
000002b0: fe5e 89bd a4cf cfba 6163 283d 4678 913d
0.1899468 0.06779592 0.12340091 -0.14637811 0.10928934 -0.03611289 -0.43379372 0.015337922
0.035158757 -0.019981647 1.0289438 -0.05174499 -0.087327585 0.030455582 -0.10073293 0.028122205
-0.006859064 -0.09345948 0.08082472 -0.070781104 -0.035045296 0.11587714 -0.027938407 -0.08815146
-0.11629186 0.003059906 -0.08394841 -0.10958135 -0.08507341 0.08862394 0.06488594 -0.017782852
0.009979906 0.013643469 -0.06712139 -0.3532368 -0.005568447 -0.57604676 0.09174771 0.06470344
-0.10458997 0.3051357 0.018248947 -0.06911262 -0.10059357 -0.0006982123 -0.05587904 0.001521674
-0.1755537 0.0024083725 0.026882973 -0.007844543 -0.059632998 0.33876824 -0.06825262 0.063052274
-0.06278522 0.007380645 -0.03930928 1.7274678 0.030656729 -0.025236817 -0.2204841 -0.008879918
-0.047234975 0.045638803 0.14206716 -0.01468486 0.09277592 -0.010699391 0.045551907 -0.24679017
-0.098495506 -0.07465904 0.13961956 -0.014642395 -0.21177858 -0.045719847 -0.17288543 0.03735327
-0.080800705 -0.61400634 -0.16133606 0.021090498 0.029945223 -0.03301616 -0.20356408 -0.013820502
0.028343871 0.11679488 0.018548435 0.24868822 -0.097703345 -0.177319 -0.18039468 0.063920535
-0.085444 -0.0629638 0.02442034 -0.0020098486 -0.023392094 -0.031668805 -0.009405041 -0.09120614
0.046580266 -0.21160807 0.040110797 -0.1466896 -0.91072917 -0.0057534305 -0.10883435 -0.0064930175
-0.120882735 0.046560157 0.0024841079 -0.08952102 0.48409498 -0.024954699 0.012352415 -0.46034873
-0.0603946 0.16830188 -0.05424629 0.19916715 0.65736985 -0.03824427 0.018698849 -0.09812472
0.6955415 -0.026961802 -0.011098249 -0.6245583 0.0869141 0.014634242 0.019061178 -0.020079585
3.2256544 0.011601546 -0.14416976 -0.13814533 0.0077318717 -0.023839237 0.015399251 -0.032868363
0.026975473 0.0020241993 -0.077073336 -0.07011907 0.015821079 0.06399943 -0.1648386 -0.154564
-0.14739762 -0.22912863 -0.1318132 -0.11711814 0.1290169 0.05544347 -0.2634995 -0.07631921
-0.09728489 -0.13744204 0.11738192 0.0032763858 0.068530485 -0.08396453 -0.014256357 -0.07814258
-0.1565614 0.04159926 0.09474223 -0.045223895 -0.067075714 -0.0015854728 0.0411104 0.071030185
