param_nonquant/encoder.layers.15.self_attn.linear_out.bias.npy (npy, 832 bytes, 1 tensors)

array f4 [176]
0.5078589 -0.21676943 -4.304433 3.696086 -1.2111406 -2.3181825 0.3217113 0.5509465
1.903233 1.2655556 -0.14054129 -0.047705803 -1.1372676 1.1035101 -0.78317976 0.0015370501
1.3742249 0.78265655 -1.2568051 -2.4887686 -1.1182458 0.9392268 2.652354 -0.106411025
1.9456588 0.04686617 0.3532064 0.21298513 0.47223443 -0.38203034 -0.35422865 1.7693665
0.46938312 1.4521947 -2.878721 -1.9461861 1.3276999 -0.34638453 -2.006844 -0.099810295
-0.030535925 3.0545146 -0.1890432 -0.1989339 -1.4534364 0.8095738 -1.0552019 2.2395716
-0.0867594 -1.4158022 -1.4716529 1.4014298 0.25461757 0.21633956 -0.6950867 -0.41482335
0.987476 -1.1535261 -0.62920076 -1.9366213 1.9735364 0.770175 -0.019428108 -0.33331364
-0.13072637 0.9590475 -2.9975019 0.70283616 1.4644427 0.9362984 -0.1420028 -0.24065289
-1.0245287 -0.3907628 -2.3358989 -3.0679626 -0.75177026 -1.1642532 1.2080085 -0.71585244
-0.46591198 -0.37789184 0.16583125 -1.2294207 0.39344704 -0.72621995 0.16070722 -1.8098968
-0.80783665 -0.34754324 2.300938 -0.16251616 0.5259199 -0.46900234 0.3508427 -0.30780286
-1.2120153 -1.6107296 -0.29505005 -0.08469788 -1.3615372 -0.94046545 -0.28842625 -0.8753338
0.054924406 -0.15859477 1.079195 2.6301277 -0.93240523 -0.3285551 -2.1093426 2.1741126
0.39465812 0.90248096 0.3967337 0.13889523 -0.121657535 -0.35190096 -1.1364034 -0.61259025
1.4721113 0.19893125 0.3411844 -0.5474023 -0.26017118 -1.9300482 -0.063648686 -0.019269528
-1.3497537 1.915222 0.44329298 -0.6482192 0.5519872 1.0473315 -0.088439986 0.9860997
6.2387505 -0.8318245 0.60495114 1.5255953 -0.7953281 -0.21311444 1.5387219 -0.5043118
-1.2909098 -0.24721172 -1.2877258 -0.70944023 -0.9717592 0.36634704 -0.16394082 0.14288461
0.2725355 0.22421986 -2.23151 1.4994164 1.9923424 -0.036983185 0.44981864 0.8456919
-0.6293686 0.27712995 -0.92517984 1.2533524 1.6692587 -0.4211173 -1.4412645 1.2901745
-0.7781693 -0.6087949 10.076717 -0.045010068 0.014732104 0.48041785 0.59282607 1.3639339
00000000: 0a03 023f cef8 5dbe eabd 89c0 ac8c 6c40
00000010: a806 9bbf 1a5d 14c0 58b7 a43e d40a 0d3f
00000020: 249d f33f bafd a13f 0eea 0fbe 2967 43bd
00000030: fc91 91bf d23f 8d3f 787e 48bf d876 c93a
00000040: 9ae6 af3f 2e5c 483f fdde a0bf fc47 1fc0
00000050: ae22 8fbf 2b71 703f 2bc0 2940 06ee d9bd
00000060: 590b f93f bef6 3f3d 78d7 b43e c618 5a3e
00000070: b6c8 f13e 7b99 c3be 755d b5be 9a7a e23f
00000080: fc52 f03e 84e1 b93f f73c 38c0 a01c f9bf
00000090: 12f2 a93f 5059 b1be 2270 00c0 5769 ccbd
000000a0: 7a26 fabc 2b7d 4340 8a94 41be 54b5 4bbe
000000b0: 340a babf 3b40 4f3f db10 87bf 2455 0f40
000000c0: eaae b1bd 0239 b5bf 1f5f bcbf 0d62 b33f
000000d0: 3c5d 823e 1e88 5d3e 34f1 31bf ba63 d4be
000000e0: 3acb 7c3f bea6 93bf 4d13 21bf 35e3 f7bf
000000f0: d79c fc3f 302a 453f b227 9fbc 16a8 aabe
00000100: 22dd 05be 2384 753f 12d7 3fc0 12ed 333f
00000110: dc72 bb3f 40b1 6f3f 2f69 11be b66d 76be
00000120: c223 83bf 1012 c8be 5e7f 15c0 8059 44c0
00000130: 0474 40bf 4006 95bf 06a0 9a3f 1b42 37bf
00000140: 048c eebe 0a7b c1be abcf 293e a85d 9dbf
00000150: e471 c93e 8de9 39bf 6f90 243e b3aa e7bf
00000160: 62ce 4ebf 30f1 b1be 9142 1340 a36a 26be
00000170: b0a2 063f 1321 f0be a8a1 b33e 5698 9dbe
00000180: 5123 9bbf 632c cebf cd10 97be 1576 adbd
00000190: da46 aebf 58c2 70bf 9bac 93be e015 60bf
000001a0: 6af8 603d ab66 22be 1023 8a3f 0354 2840
000001b0: 1cb2 6ebf 6038 a8be 78ff 06c0 a924 0b40
000001c0: a110 ca3e fe08 673f ae20 cb3e 8d3a 0e3e
000001d0: 9627 f9bd 5d2c b4be ab75 91bf b7d2 1cbf
000001e0: 256e bc3f a2b4 4b3e b9af ae3e 8f22 0cbf
000001f0: 2835 85be d20b f7bf 3e5a 82bd 21db 9dbc
00000200: bbc4 acbf ff25 f53f 4cf7 e23e b2f1 25bf
00000210: 084f 0d3f f50e 863f 0620 b5bd 0871 7c3f
00000220: d8a3 c740 73f2 54bf 14de 1a3f b546 c33f
00000230: 9f9a 4bbf ac3a 5abe d7f4 c43f 941a 01bf
00000240: 883c a5bf 1225 7dbe 33d4 a4bf e09d 35bf
00000250: 36c5 78bf d791 bb3e 1ae0 27be 5850 123e
00000260: c689 8b3e e499 653e 0fd1 0ec0 e0ec bf3f
00000270: 1305 ff3f ae7b 17bd a14e e63e 447f 583f
00000280: 4d1e 21bf fae3 8d3e 96d8 6cbf da6d a03f
00000290: 45aa d53f b09c d7be 5b7b b8bf 7024 a53f
000002a0: 1a36 47bf fcd9 1bbf 3c3a 2141 7a5c 38bd
000002b0: ec5e 713c 54f9 f53e 73c3 173f 6395 ae3f
