param_nonquant/encoder.layers.5.feed_forward2.linear1.bias.npy (npy, 2944 bytes, 1 tensors)

array f4 [704]
000000 81 8a 85 bf 55 5b a8 3a f8 6a fc bd 04 f1 a3 3e
       -1.0432893 0.0012844602 -0.1232509 0.32019818
000010 83 41 82 be 29 4c a7 3d a9 dd fa 3e 50 5b 92 3e
       -0.25440606 0.08168823 0.48997238 0.2858529
000020 4a 50 78 bf 49 fb 71 3d 5b 1f a1 be e9 a3 ee be
       -0.9699751 0.059077535 -0.31469235 -0.4660943
000030 24 3d 06 be 10 31 eb be ae 08 88 be 49 bc ec be
       -0.13109261 -0.4593587 -0.26569122 -0.462374
000040 53 03 b9 be b0 48 08 be b2 a3 63 bf 20 90 04 bf
       -0.3613535 -0.13308978 -0.88921654 -0.5178242
000050 14 63 2d 3c 25 44 c9 be 9a 9f 38 bf be 71 86 be
       0.010582704 -0.39309803 -0.7211853 -0.26258653
000060 22 5f 67 be 76 92 14 be 8c d7 ab 3e 6e 3d a0 3d
       -0.22594884 -0.14508995 0.33562887 0.07824217
000070 1c 0d 8b be 9a da b7 be 7a b4 97 be b0 48 97 be
       -0.2715844 -0.35908967 -0.2962988 -0.29547644
000080 38 4a 79 3a 1c a7 1c bf 67 ee 35 bf 48 7c 83 be
       0.00095096556 -0.6119249 -0.710669 -0.25680757
000090 48 05 ef be b1 4c 6c be cc 43 10 bf 17 c4 a6 bd
       -0.46683717 -0.2307613 -0.5635345 -0.0814287
0000a0 09 13 25 bf 0c 41 9d be 3c ba 03 bd db 85 36 bd
       -0.6448217 -0.3071369 -0.03216003 -0.04456125
0000b0 48 e5 bf bd 0b 9d 3f bd e0 d8 a8 be 94 06 aa be
       -0.09369904 -0.046780627 -0.32977962 -0.33208144
0000c0 1b 47 9c be 92 0c 2b bf f9 6a a6 be dc 8c 13 bf
       -0.30523 -0.66816056 -0.3250349 -0.5763681
0000d0 4d 44 07 bf 28 87 82 be b8 57 06 be 76 5b a3 be
       -0.52838594 -0.2549374 -0.131194 -0.31905717
0000e0 3e c3 bd bd b9 d4 0f bf 10 0b 84 3d d6 0d e8 be
       -0.09265755 -0.56183964 0.064474225 -0.45323056
0000f0 5a d4 8b bd 36 d4 cf bf de 16 aa be 10 c3 35 bf
       -0.06827612 -1.6236637 -0.3322057 -0.71000767
000100 84 25 dc be 69 2c 64 be a8 c8 81 bf c4 55 68 be
       -0.42997372 -0.22282566 -1.013936 -0.22688967
000110 c0 d5 01 bf 37 f2 39 bf a5 89 21 bf 69 3a 8f bd
       -0.5071678 -0.72635216 -0.63100654 -0.06993563
000120 7c 33 4e bd 27 34 cf bd 3c 28 b5 3d 49 b9 c3 3d
       -0.050342068 -0.10117369 0.08845565 0.09556825
000130 4e ef bd bd 5d e1 b6 bd 38 86 77 be 18 b4 73 3e
       -0.09274159 -0.089297034 -0.24172294 0.23799169
000140 62 23 0f bf 58 54 cc 3d b0 a3 e6 3d 50 e1 32 bd
       -0.55913365 0.09977025 0.1126169 -0.043671906
000150 3f 85 97 be 56 62 e3 3d 1f e7 3c 3e ad 49 16 bf
       -0.29593846 0.111027405 0.1844754 -0.5870617
000160 d5 23 ae be da 72 8e be 02 f3 fc 3d 82 77 80 be
       -0.34011713 -0.27822 0.123510376 -0.25091177
000170 77 ad 0a bc d4 56 8e 3e 57 bb 12 bf 27 0f 4c be
       -0.008464209 0.2780062 -0.5731711 -0.19927655
000180 d5 75 3f be b1 b8 30 3e 6d b7 a7 3d af fe 0a be
       -0.18697293 0.17257954 0.081892826 -0.13573717
000190 da ee be be a4 7b 73 be 8c 0e e6 be be f7 5b be
       -0.37291604 -0.23777634 -0.44932973 -0.21481225
0001a0 be 37 a0 be 3a 01 d6 3c 53 32 6b bc 46 4e bd 3d
       -0.31292528 0.026123632 -0.01435526 0.09243445
0001b0 05 cc a0 be b1 60 f1 bd d6 16 30 bf 76 2e 84 bd
       -0.31405655 -0.117860205 -0.68784845 -0.06454174
0001c0 53 03 07 bf a7 24 98 be 47 48 45 3e f5 fc d3 be
       -0.5273945 -0.29715464 0.19265853 -0.41403928
0001d0 c2 3c ee 3d 79 b0 5e 3e 6b 57 ca be 3a c0 06 bf
       0.116326824 0.21747006 -0.3951982 -0.52637064
0001e0 97 f7 61 bd 5d f9 c3 be fb 01 98 3b b1 df 15 bf
       -0.05516776 -0.38276187 0.004638908 -0.5854445
0001f0 70 69 dc be 59 a5 c7 3e c8 ed 82 3e 7c 63 97 be
       -0.43049192 0.38993338 0.25572038 -0.29568088
000200 49 43 b8 be 84 ec b7 be b6 14 7b be cd 01 1c bf
       -0.35988835 -0.35922635 -0.2451962 -0.6094025
000210 06 0c 95 3e d7 46 4c be 43 03 35 bf 6a dd be be
       0.29110736 -0.19948898 -0.707081 -0.372783
000220 1a 1c ff be b2 1f 4f bf 71 62 46 3e d2 2a bb be
       -0.49826127 -0.8090774 0.1937349 -0.36556107
000230 4e e0 03 be 47 ea dd be 27 79 4d be c1 f2 24 3c
       -0.12878534 -0.43342802 -0.20065747 0.010067643
000240 9e f5 a7 3c da c2 71 be 70 35 e7 be 3c 72 39 be
       0.020502862 -0.23609486 -0.45157957 -0.18109983
000250 32 77 a5 be fc b5 8a bd 7c a8 96 be d4 53 80 bd
       -0.323175 -0.06772992 -0.29425418 -0.06265989
000260 d5 48 2c bd 79 1d 7f bf 29 d4 f8 bd 1a 3f b5 be
       -0.042061646 -0.99654347 -0.12149841 -0.35399705
000270 46 df b5 3c 42 e6 0d bf 18 2f df be c7 18 63 be
       0.022201192 -0.5542947 -0.43590617 -0.2217742
000280 1c d4 0d bf 63 a0 7c 3d ca 01 97 3d 8a 55 20 bf
       -0.5540178 0.061676394 0.07373388 -0.6263052
000290 cb f1 12 bf de e6 94 bc 84 f9 b4 3e ab 1b bb be
       -0.57400197 -0.018176492 0.35346615 -0.36544546
0002a0 84 05 59 be e7 a4 22 3e c2 4a 4a bd 93 70 84 bd
       -0.2119351 0.15883218 -0.0493877 -0.06466784
0002b0 90 80 c0 be 47 c0 2c 3e 4e f1 ee be e4 82 c4 bd
       -0.37598085 0.16870223 -0.46668476 -0.09595278
0002c0 a6 c7 f1 be b1 75 f8 bd 20 38 77 3e b6 eb b9 bd
       -0.47222632 -0.12131823 0.24142504 -0.090781614
0002d0 d4 ed c1 3d 00 e8 bf be 87 96 a4 3e a6 0c 79 3e
       0.0946919 -0.3748169 0.32146093 0.24321231
0002e0 ec 9b 60 be a9 19 6d bf a1 8e 9e be 99 a1 7e be
       -0.2193448 -0.9261728 -0.30968192 -0.24866332
0002f0 3f 52 30 3e 07 d0 84 be e7 89 c3 be a8 5f 91 be
       0.17218874 -0.25939962 -0.3819115 -0.28393292
000300 5a 10 24 be 09 28 09 be 3d e0 b7 be 19 38 ae be
       -0.16021863 -0.13394178 -0.35913268 -0.34027174
000310 4e 4b 21 be e6 8c dc be 14 ca d6 be 46 d2 98 be
       -0.15751383 -0.43076247 -0.41951048 -0.29847926
000320 f5 9a a6 bc 36 e9 ed be 88 88 55 be b2 a6 1b 3e
       -0.020337561 -0.46466988 -0.20852864 0.15200308
000330 57 95 d7 be 11 ae 58 3c 12 d5 95 be 12 71 89 be
       -0.42106125 0.013225094 -0.29264122 -0.26844078
000340 4c 04 c7 be fe fd c0 be b6 20 e8 be 12 54 a0 be
       -0.38870466 -0.3769378 -0.45337456 -0.3131414
000350 c4 ab 8e be 06 a1 05 be ec 5b 2c bf 88 0c 57 be
       -0.27865422 -0.13049707 -0.6732776 -0.21000874
000360 a0 63 dc be c3 06 be be 74 38 a8 be 5f 25 76 bf
       -0.43044758 -0.37114534 -0.3285557 -0.96150774
000370 a9 d0 8c bc 9a d5 51 be a4 c6 eb bd 5c d2 ed 3d
       -0.01718934 -0.20491639 -0.11512497 0.116123885
000380 06 d1 1f be 38 60 22 3e d1 7d 74 3e 1b fd 9c be
       -0.1560708 0.15857017 0.2387612 -0.30661854
000390 38 48 33 be e8 3c 0a bf d6 a1 5e ba 59 19 a4 be
       -0.17508018 -0.53999186 -0.00084927434 -0.3205059
0003a0 da 30 cb 3d 64 82 64 be 12 97 39 3d f2 25 12 bf
       0.09921427 -0.22315365 0.045310088 -0.5708915
0003b0 fc e3 05 bc 52 f0 0a bf fa df 10 bf bd 15 03 bf
       -0.0081720315 -0.5427295 -0.5659176 -0.51205045
0003c0 0c 42 7c 3e 1d 6a 68 3d 66 5a be be 4b 46 0e bf
       0.2463457 0.056741823 -0.37178344 -0.5557601
0003d0 cc f3 61 be a2 ce 02 be 50 31 6a be a1 41 d5 be
       -0.22065657 -0.12774137 -0.22870374 -0.41651633
0003e0 20 07 80 3e 5a 95 11 be 91 f8 14 be f8 9b e4 be
       0.25005436 -0.1421713 -0.14547946 -0.44650245
0003f0 4d a4 c7 3e 74 04 4b bf c3 7c 01 be 4e 25 ad be
       0.3899254 -0.7930367 -0.12645249 -0.33817524
