param_nonquant/encoder.layers.1.self_attn.pos_bias_v.npy (npy, 832 bytes, 1 tensors)

array f4 [4, 44]
0	0x3ed79884	0.42108548
1	0x3d301ae3	0.04299439
2	0xbed5b543	-0.41739854
3	0x3d44af08	0.048018485
4	0xbc92da11	-0.017926248
5	0xbd38afa1	-0.045089368
6	0x3ca123ac	0.01967033
7	0x3dcf7a37	0.101307325
8	0xbda93be7	-0.082633786
9	0x3aa32fa4	0.0012450111
10	0x3cded368	0.027200416
11	0xbab38bf8	-0.001369833
12	0x3e0885c1	0.13332273
13	0xbe618c54	-0.22026187
14	0x3d634025	0.055481095
15	0x3e844bd4	0.25839102
16	0x3d97689b	0.07392999
17	0x3e854966	0.2603256
18	0x3d45c293	0.048281264
19	0x3dd4b922	0.10386874
20	0xbd9b880b	-0.075943075
21	0xbc94db7e	-0.018171068
22	0xbbe2f171	-0.0069257547
23	0x3da20303	0.07910731
24	0x3d31a301	0.043368343
25	0x3d07340a	0.033008613
26	0xbd39114d	-0.045182515
27	0x3dc14d54	0.09438577
28	0x3e288ca8	0.16459906
29	0xbd87e7ca	-0.06636007
30	0xbbd76dca	-0.006574367
31	0xbc5b7487	-0.0133944815
32	0xbcf97cc5	-0.030455003
33	0x3d27dd12	0.040982313
34	0x3c449002	0.011997225
35	0xbdb9a1ae	-0.09064041
36	0xbda33cae	-0.07970558
37	0x3ccda5fc	0.025103562
38	0xbd9f3165	-0.07773093
39	0x3be24a9d	0.0069058673
40	0x3ce3ec71	0.027822705
41	0xbcc00e9c	-0.023444466
42	0x3df64222	0.120243326
43	0xbc92baaa	-0.017911274
44	0x3c931f5b	0.017959287
45	0x3c22c173	0.009933817
46	0x3d9b70f6	0.07589905
47	0xbc89439a	-0.016755868
48	0xbb3d13d9	-0.0028850941
49	0x3b349fbd	0.0027561032
50	0x3c8e024c	0.01733508
51	0xbd0d2d05	-0.034466762
52	0xbdc41447	-0.0957418
53	0x3e393720	0.18087435
54	0xbdbdb100	-0.09262276
55	0xbbb18f55	-0.005418698
56	0xbd9bc671	-0.07606209
57	0xbda10eee	-0.07864176
58	0xbcf3d250	-0.02976337
59	0xbddf295d	-0.10896561
60	0x3e9123de	0.28347677
61	0x3d06df04	0.032927528
62	0xbcc2834b	-0.023744246
63	0x3d0b160e	0.03395658
64	0xbd95d1c9	-0.07315404
65	0xbda3e6f2	-0.08003034
66	0xbc24f0c5	-0.01006717
67	0xbb951246	-0.0045492975
68	0x3d42730e	0.047473006
69	0xbd24f7ad	-0.040275265
70	0x3d16a918	0.036782354
71	0x3d940cf6	0.072290346
72	0xbdbaf552	-0.091288224
73	0x3d384387	0.044986274
74	0x3d2d1dc5	0.04226472
75	0xbd3f742a	-0.046741642
76	0x3d4c43f9	0.04986951
77	0xbdc96d87	-0.09835344
78	0xbd6788b6	-0.056526862
79	0xbeda88f0	-0.426826
80	0xbcd7b509	-0.026331441
81	0xbc420438	-0.011841826
82	0xbdfed84d	-0.124436
83	0x3e03285c	0.12808365
84	0x3f64d305	0.8938449
85	0xbd6cd348	-0.05781868
86	0x3e0c375e	0.13692996
87	0xbdfefc9e	-0.12450527
88	0x3d63913d	0.055558432
89	0x3e04b187	0.12958346
90	0x3e06c514	0.13161117
91	0x3c071559	0.008244836
92	0x3d2b6542	0.041844614
93	0xbd43576c	-0.047690794
94	0x3c88f0f7	0.016716463
95	0xbcc05d0e	-0.023481872
96	0x3e6503ff	0.22364806
97	0xbddd61ed	-0.108096935
98	0x3ceb9d78	0.02876161
99	0xbd2634f4	-0.040577844
100	0xbc8591fe	-0.016304966
101	0xbd7d5fcc	-0.061858937
102	0xbdbcc4e2	-0.0921724
103	0xbd0fa1fc	-0.03506659
104	0x3da440ea	0.08020194
105	0xbd04a5d0	-0.032384694
106	0x3cefd6fd	0.02927732
107	0xbe502be6	-0.20329246
108	0x3eb36327	0.35036585
109	0x3d53b1b2	0.051683135
110	0x3e81966c	0.25310075
111	0xbdaa8257	-0.083256416
112	0x3da79854	0.08183351
113	0x3cc1e3ef	0.023668258
114	0xbccf435e	-0.025300678
115	0x3d5516d2	0.052023716
116	0xbcffce05	-0.031226167
117	0xbd95df22	-0.0731795
118	0x3d49e676	0.04929205
119	0x3ea16da3	0.3152896
120	0x3da723a4	0.08161095
121	0x3dc4f417	0.09616869
122	0xbdefd20e	-0.117099866
123	0x3c5c0932	0.013429927
124	0xbc154fc6	-0.009113258
125	0x3d049dd8	0.032377094
126	0xbd442866	-0.04789009
127	0x3b6af5e0	0.003585212
128	0x3d7475af	0.059682544
129	0x3ea04a54	0.31306708
130	0x3cefc5bb	0.02926909
131	0xbcdaeb9e	-0.02672368
132	0x3e9e45bf	0.30912587
133	0x3ce36312	0.027757201
134	0x3e3baa56	0.18326697
135	0xbd6ea532	-0.05826301
136	0x3d62047b	0.055180054
137	0x3abd5421	0.0014444628
138	0x3dba24f0	0.090890765
139	0xbdbf725f	-0.093479864
140	0xbdacee74	-0.08443919
141	0x3cb3684e	0.021900322
142	0x3c999454	0.018747486
143	0xbd87643a	-0.066109136
144	0xbf0b00d6	-0.5429815
145	0x3c40688e	0.011743678
146	0x3ea01bc7	0.31271192
147	0x3e1ca60d	0.15297718
148	0xbe7bb756	-0.24581656
149	0x3dd1419e	0.102175936
150	0xbdd75098	-0.10513419
151	0xbc65fd09	-0.014037379
152	0xbea73a31	-0.32661584
153	0x3e3901bc	0.18067068
154	0xbc3ee468	-0.011651136
155	0x3de5d49c	0.11222193
156	0x3dd366d6	0.10322349
157	0xbd824c58	-0.06362218
158	0xbee7b015	-0.45251527
159	0x3bf0ff4a	0.0073546516
160	0x3e1a0629	0.15041412
161	0xbd8d6ea2	-0.06905867
162	0xbe86b45e	-0.26309484
163	0xbdecf7a5	-0.11570672
164	0xbdb0d072	-0.08633508
165	0xbcfac9aa	-0.030613739
166	0x3e075749	0.1321689
167	0x3d1b4a32	0.037912555
168	0x3d3d00af	0.04614323
169	0xbd06e2eb	-0.03293125
170	0x3c19ddd1	0.009391264
171	0x3d144d3a	0.03620646
172	0xbdb0acae	-0.08626686
173	0xbd13c3f7	-0.03607556
174	0xbd13d893	-0.036095213
175	0xbf03b50d	-0.51448137
