param_nonquant/encoder.layers.2.self_attn.linear_v.bias.npy (npy, 832 bytes, 1 tensors)

array f4 [176]
0	0xbd045f53	-0.03231747
1	0x3c97931a	0.01850276
2	0xbd03c101	-0.032166485
3	0x3c962b15	0.01833109
4	0xbe008dba	-0.12554064
5	0x3d3ff04e	0.04686003
6	0xbcc8b22c	-0.024499021
7	0x3d11f648	0.035635263
8	0x3d5caadd	0.053873885
9	0x3bd9a022	0.006641404
10	0x3bad5e50	0.005290784
11	0x3c235be6	0.009970641
12	0x3d62e322	0.055392392
13	0x3de97aa8	0.11400348
14	0xbd3f205e	-0.046661727
15	0x3b50fb4b	0.0031888064
16	0xbde93ec4	-0.11388925
17	0xbb5b6344	-0.0033475915
18	0x3d9c8111	0.07641805
19	0x3dbefbcf	0.093253724
20	0xbadad887	-0.001669661
21	0xbc8e8304	-0.017396457
22	0x3d0533c6	0.032520078
23	0xbd39a2af	-0.045321163
24	0x3c85cdc0	0.01633346
25	0xbce28340	-0.027650476
26	0xbcafaa54	-0.021443523
27	0x3c97f536	0.018549543
28	0xbd1b3172	-0.03788895
29	0xbde65952	-0.11247505
30	0xbce71605	-0.028208742
31	0xbd25904a	-0.040420808
32	0xbd21fcc5	-0.0395477
33	0xbdd4474c	-0.10365161
34	0x3d9b4dac	0.07583174
35	0x3c9c0bff	0.019048689
36	0xbcaa1738	-0.020763025
37	0x3c95a34e	0.018266346
38	0xbd2f3fa1	-0.04278529
39	0x3c4c9f38	0.012489133
40	0x3d903477	0.07041257
41	0xbd0c2f04	-0.034224525
42	0xbbb7b72e	-0.0056065535
43	0x3c987f9d	0.018615538
44	0x3c7bbdaa	0.015365044
45	0x3c9601ae	0.018311348
46	0xbd01e8f0	-0.031716287
47	0xbe0598fc	-0.1304664
48	0xbddc2165	-0.10748557
49	0xbc7f1ee4	-0.01557133
50	0xb9901d89	-0.00027487826
51	0xbd8b8545	-0.068125285
52	0x3d0e487a	0.034737088
53	0x3d1a4366	0.037661932
54	0x3d5170ad	0.051132847
55	0x3d43fef6	0.04785057
56	0x3ccac2d6	0.024751108
57	0xbdf9340f	-0.121681325
58	0x3d36b811	0.044609133
59	0x3ccd875f	0.025088964
60	0xbc871257	-0.016488237
61	0xbdafcdb1	-0.085841544
62	0x3d00a45c	0.031406745
63	0x3c5e3482	0.0135623235
64	0xbb95112c	-0.004549166
65	0x3d4d7308	0.05015853
66	0xbd50378f	-0.050834235
67	0xbd418886	-0.04724934
68	0x3cac0150	0.02099672
69	0xbd9f30e8	-0.07773
70	0x3d5dce24	0.05415167
71	0x3cc40c9c	0.023931794
72	0xbce52dde	-0.027975973
73	0xbd45692c	-0.048196003
74	0xbd5bb6d3	-0.05364115
75	0xbd50a9d4	-0.05094321
76	0x3c674438	0.014115386
77	0xbd80f39e	-0.06296466
78	0xbd78d040	-0.060745478
79	0xbd0757e5	-0.033042807
80	0x3cc82ec4	0.024436362
81	0x3aa148f2	0.0012305065
82	0xbbdfc5fa	-0.0068290206
83	0xbe31ec96	-0.17375407
84	0x3db87178	0.090060174
85	0xbdcc1a64	-0.09965971
86	0xbd9298a8	-0.07158023
87	0x3d475032	0.048660465
88	0x3d96393b	0.073351346
89	0xbd3c5882	-0.045982845
90	0x3ced893a	0.028996099
91	0x3d5e869b	0.05432759
92	0x3c3e4f32	0.011615561
93	0x3dc3c4e4	0.09559038
94	0x3d1360ae	0.035980873
95	0xbe09c903	-0.13455586
96	0xbde43e95	-0.11144749
97	0xba9c33b9	-0.001191727
98	0x3d757fb4	0.05993624
99	0xbbe06640	-0.0068481266
100	0xbb97bebe	-0.0046308925
101	0x3cb00d7d	0.021490807
102	0xbd064a05	-0.032785434
103	0xbd9996d6	-0.07499473
104	0xbd2eed41	-0.04270673
105	0x3ca26927	0.019825531
106	0x3d6d6516	0.05795773
107	0xbd4fdf5e	-0.05075013
108	0xbdc45f71	-0.095885165
109	0x3c9fc95d	0.019505197
110	0xbc5b5118	-0.0133860335
111	0x3dc9c798	0.098525226
112	0x3cefa260	0.029252231
113	0x3ceeea14	0.029164352
114	0x3dc70035	0.09716836
115	0x3db9cb0d	0.09071932
116	0xbcf1170b	-0.029429933
117	0xbcb9e31a	-0.022691298
118	0xbd22036e	-0.039554052
119	0x3c6ac278	0.0143285915
120	0x3c1a41e6	0.0094151255
121	0x3dae1e10	0.08501828
122	0x3c6f75e4	0.01461551
123	0x3cd3dcd6	0.025862139
124	0x3d400743	0.046881925
125	0x3973a738	0.0002323658
126	0xbd050d9e	-0.03248369
127	0xbdd330c4	-0.10312036
128	0x3d9f6dae	0.077845916
129	0xbc414e9a	-0.011798525
130	0x3d4587c2	0.048225172
131	0x3bfb21a8	0.0076639242
132	0xbda8e3a6	-0.082465455
133	0x3e455512	0.19270733
134	0xbe421b0e	-0.18955633
135	0x3d5499a4	0.051904336
136	0xbc8635f6	-0.016383152
137	0x3d615f60	0.055022597
138	0x3e814536	0.25248116
139	0x3dfb11e8	0.12259275
140	0x3bc022d7	0.0058635282
141	0x3ba67a73	0.005080515
142	0xbc23cc5a	-0.009997452
143	0xbd96a92b	-0.07356485
144	0xbd2c98c3	-0.042137872
145	0xbc886206	-0.016648304
146	0xbd9aebd2	-0.075645104
147	0x3d80af66	0.062834546
148	0xbca46d6c	-0.020071708
149	0xbd4eb4ce	-0.050465398
150	0x3da4bda6	0.08043985
151	0xbc52e460	-0.012871832
152	0xbd70f1aa	-0.05882422
153	0xbe201b05	-0.15635307
154	0x3bace6a3	0.0052765175
155	0xbdcd9507	-0.1003819
156	0xbd3a211c	-0.04544173
157	0x3d57c287	0.05267575
158	0x3d01862f	0.031622108
159	0xbdbb4933	-0.09144821
160	0xbd9b7693	-0.075909756
161	0x3e108c1b	0.14115946
162	0xb99fa022	-0.00030446152
163	0x3d87a702	0.06623651
164	0x3dd41f6f	0.10357558
165	0xbdcdfe0c	-0.10058221
166	0x3da6b64f	0.08140241
167	0x3c9525f8	0.018206581
168	0x3d5197e9	0.051170263
169	0xbcef470b	-0.02920868
170	0x3e116718	0.14199483
171	0x3e1475f9	0.14498128
172	0xbd6622ec	-0.056185648
173	0x3c8d5246	0.017251145
174	0xbd7f02aa	-0.0622584
175	0x3d475545	0.048665304
