param_nonquant/encoder.layers.13.conv.depthwise_conv.weight.npy (npy, 21952 bytes, 1 tensors)

array f4 [176, 1, 31]
000000 98 31 86 3d 1c 67 77 bc 07 02 3c bd 36 bf bd 3d
       0.06552428 -0.015100267 -0.04590037 0.09264986
000010 71 b0 02 3d 4e 4e a0 bc 3a 66 77 3c b4 63 21 be
       0.03190655 -0.019568589 0.015100056 -0.1576069
000020 28 91 50 be c8 e9 ec bd c5 0c df be 86 b9 d1 be
       -0.20367873 -0.11568028 -0.4356443 -0.40961856
000030 d8 ac ba be 23 3b 68 be 12 95 13 bf d2 39 f7 bf
       -0.36459994 -0.22678809 -0.5764934 -1.931452
000040 fc fa 0c 40 c1 51 52 40 77 3c 1f 40 dc 0a f4 3f
       2.2028189 3.2862399 2.4880655 1.9065814
000050 ce 86 86 3f 1a a8 d3 3e 53 a4 88 bc 3b cb e3 3c
       1.0509889 0.4133919 -0.016679918 0.027806869
000060 92 cb dd 3d 16 0d e2 3d 7f e1 85 3d 03 20 d0 bc
       0.108298436 0.11037652 0.065371506 -0.02540589
000070 c2 6c b0 3d f1 fe 7f bd ff 01 53 3d 3e d3 9a 3d
       0.08614494 -0.06249899 0.051515575 0.075598225
000080 e8 f3 5a bd 27 aa a9 3c a8 8f fd 3c ed e6 62 3d
       -0.053455263 0.020711018 0.03095229 0.05539601
000090 9d 3b 85 3c a4 bc a2 bd ef 1a bb 3d cd 66 01 3d
       0.016263777 -0.079461366 0.091359966 0.03159218
0000a0 e8 22 a6 bd 28 39 53 bd fa 78 dd bd 7c e3 a0 be
       -0.081121266 -0.05156818 -0.1081409 -0.31423557
0000b0 55 8d 3c bf 9b 5f 43 3f 5e 88 10 40 96 3d 62 be
       -0.73653156 0.7631776 2.2583232 -0.22093806
0000c0 f1 1b 82 c0 f5 48 52 c0 15 db 51 bf b8 f1 07 3f
       -4.065911 -3.285703 -0.8197492 0.5310321
0000d0 60 d3 13 3f 70 c3 b7 3e ea 3e b1 3e 98 6f d8 3d
       0.5774441 0.35891294 0.34618312 0.1056816
0000e0 4a 84 fa 3c 25 41 fb bc 3c 4f 8a 3d 33 90 90 bd
       0.030580658 -0.030670712 0.06753394 -0.07058754
0000f0 86 49 4b 3d d0 c3 7d bd db 0a c4 bd 30 41 e2 3c
       0.049630664 -0.06195432 -0.09572383 0.027618974
000100 31 96 1b bd 19 4e cb bd 0a 23 07 be bc 5b ba bd
       -0.03798503 -0.09927005 -0.1319696 -0.09099528
000110 eb 03 b2 be 90 b2 00 bf 8b 86 34 bf f0 e1 89 bf
       -0.34768614 -0.50272465 -0.70517796 -1.0772076
000120 a7 31 cb bf 24 55 0a c0 47 df 1a c0 9a ad 23 c0
       -1.5874528 -2.1614466 -2.4198778 -2.5574708
000130 f7 76 1e c0 a8 3d c7 bf 4d 78 99 bf b1 93 0d bf
       -2.476011 -1.5565691 -1.1989838 -0.55303484
000140 44 cd 5f bd 3c fb 05 3e 9b 02 65 3e f4 b9 d6 3e
       -0.054639116 0.1308412 0.22364275 0.41938746
000150 db 9f 3e 3d a9 d6 98 3d a0 08 fe 38 75 cc 0b 3e
       0.04653917 0.07462818 0.0001211327 0.13652213
000160 ca 13 b0 3d 08 2c 16 3e 07 55 1e 3e 52 a7 aa bc
       0.085975245 0.14665234 0.15462123 -0.020831738
000170 3b 5c ef 3d 5e bd da 3d ad a0 15 bd 22 4f 4f bc
       0.116875134 0.1068065 -0.036530185 -0.012653144
000180 24 81 15 3e a3 e6 bc 3d 77 3a 55 3d 79 ff 39 3e
       0.14600044 0.09223678 0.05205771 0.18163861
000190 b6 42 b8 3e 9b f2 11 3f 5f 54 7e 3f d6 f0 ac 3f
       0.35988396 0.5701081 0.9934749 1.3510997
0001a0 b4 83 b0 3f 94 6a 2d 3f fe 8a 73 bf 96 57 2b c0
       1.3790193 0.6774075 -0.9513396 -2.6772208
0001b0 eb 8b 2a bf d1 2b 51 c0 a6 10 1f c0 14 75 f0 bf
       -0.6661975 -3.2682993 -2.4853911 -1.878573
0001c0 88 87 88 bf ff d4 91 be b0 51 1e bb 8c ef 6d 3d
       -1.0666361 -0.28482816 -0.0024157576 0.058089778
0001d0 e6 d6 fe bd 25 e9 55 bd 11 b8 03 3d dd fb 58 bd
       -0.124433324 -0.052224297 0.03215796 -0.05297457
0001e0 c0 f2 95 3d 2d 21 04 be c0 cb 45 3d 2b d3 8c bd
       0.073216915 -0.1290328 0.048290014 -0.068762146
0001f0 a8 6f 8a bc 13 0e b9 3d e1 c5 82 bd 1c e8 93 3d
       -0.016898945 0.090358876 -0.06385399 0.07222006
000200 c7 d5 eb 3c 60 cf ea bd 1e 8a 1b be 04 c1 c1 be
       0.02878846 -0.11465335 -0.15189406 -0.37842572
000210 ce 1d 03 bf c1 15 47 bf 7c 01 82 bf 4e e5 a0 bf
       -0.51217353 -0.7776757 -1.0156703 -1.2569978
000220 63 fd a8 bf 2e a0 a9 bf f2 a0 9a bf 66 9c 80 bf
       -1.3202327 -1.3252008 -1.2080367 -1.0047729
000230 18 55 e0 3e cc 94 e9 3f 87 21 02 40 c0 7a e6 3f
       0.4381492 1.8248534 2.0332963 1.800621
000240 ab 76 9e 3f bf d2 39 3f 64 8b e2 3e ae 4a 3d 3e
       1.2379965 0.725872 0.44246972 0.1848552
000250 59 3a a6 3d a8 1d f7 bd 16 3e 31 3c 80 eb 8f be
       0.08116598 -0.12066203 0.010818025 -0.2810936
000260 5c be 6f bd e1 ac 1c 3e de 4a 83 3d c2 0f 8d 3e
       -0.05853115 0.15300323 0.06410764 0.27551085
000270 e4 3c 23 bd 89 38 d1 3d 37 fa d9 bd 80 14 6d 3e
       -0.03985299 0.10215861 -0.10643428 0.23152351
000280 d4 8e 92 bc 47 98 9f 3c 42 23 39 3e df b4 1a 3e
       -0.017890371 0.019481791 0.18079856 0.1510806
000290 f2 e2 1d bd 2b 9e 96 3e 9f 66 3c 3e f6 0a 1b bf
       -0.03854651 0.29417548 0.18398522 -0.605636
0002a0 48 13 b9 bf 11 8b 22 c0 b8 d7 d4 bf b0 29 22 c0
       -1.4459009 -2.539738 -1.6628332 -2.5337944
0002b0 9c 5b 90 bf e0 be af be d0 96 3d 3e 30 35 c0 3e
       -1.1277957 -0.34325314 0.18514562 0.3754058
0002c0 16 d8 30 3d f3 93 5b 3e 3c 34 42 3e d8 2b 15 3e
       0.043174826 0.21443157 0.18965238 0.14567506
0002d0 77 26 02 3d d4 78 11 bd 9e d2 0a bd cd b3 0c 3e
       0.031774964 -0.03551562 -0.033892266 0.13740464
0002e0 9b 32 3a bd 0c b7 8d 3e a2 f3 02 3d d8 ed 83 3c
       -0.045458417 0.27678716 0.031970628 0.016104624
0002f0 9c 19 91 bd b2 ae 97 3c 27 b7 79 bc bf 1e 37 3d
       -0.07084963 0.018515918 -0.015241421 0.044707056
000300 96 12 71 bd 56 6f a2 bd a7 c1 09 bd 0e 45 2c be
       -0.058855616 -0.07931392 -0.033631947 -0.16823217
000310 fb ea 29 be f0 5f 32 bd 6a 09 b2 bc 38 95 6e bf
       -0.16593544 -0.043548524 -0.021733005 -0.9319644
000320 ec 41 af c0 40 34 a9 bf ba 40 09 c1 80 8e 36 c0
       -5.476797 -1.321907 -8.578302 -2.8524475
000330 87 37 ae be b2 e8 8f 3e 26 4c 04 bd 8d 4c 57 be
       -0.3402674 0.2810722 -0.032299183 -0.21025296
000340 d2 8b d9 bd 29 07 c1 bc 81 43 ac bc 4d 04 93 bd
       -0.10622372 -0.023562985 -0.021028282 -0.07178555
000350 d9 dd f0 bc 69 0d da bc ef 49 d6 3c ec 48 a7 bb
       -0.02940266 -0.026617723 0.026158301 -0.0051051285
000360 c1 d5 b9 bd 27 b3 80 bc ae d3 ce bc cf 2d 84 3d
       -0.090739734 -0.015710426 -0.025247421 0.0645405
000370 70 45 22 3d 4f 0c 9f bd 3f 66 1f 3d 82 a7 64 bd
       0.039617002 -0.077660196 0.03891587 -0.05582381
000380 9a 74 55 3b bc d1 d1 3b 07 43 e8 bc 06 0b 86 3c
       0.003257072 0.006403176 -0.028352274 0.016362678
000390 15 c6 27 3e bd 7f 02 3f 71 9f 09 3f a2 8a 6a 3d
       0.16384156 0.50976163 0.53758913 0.057261117
0003a0 c5 a4 c2 40 b7 81 86 bf ae 0b a1 3f bc 15 51 3f
       6.0826135 -1.0508336 1.2581689 0.8167379
0003b0 48 b4 2e 3f 15 ec e2 3e 5f 1f 88 3e 86 b3 74 3e
       0.6824384 0.4432074 0.26586434 0.23896608
0003c0 32 04 1c 3e b3 ee b9 3d 54 3d 9f 3d 0d 50 17 3e
       0.15235975 0.090787314 0.07775369 0.1477663
0003d0 ad 3a e1 bc 46 a8 49 3d fb 24 ac bd c4 9b 92 3d
       -0.0274938 0.049232744 -0.08405491 0.07158616
0003e0 c0 df 50 bb ef 93 3c bd d8 a7 6f bd 9e af d6 3b
       -0.0031871647 -0.046039518 -0.058509678 0.006551697
0003f0 12 3c ae 3d 38 13 2b 3d 0e 0d 7c 3c 07 e9 cf bd
       0.08507551 0.041766375 0.015383972 -0.10151868
