param_nonquant/encoder.layers.1.norm_conv.mod.bias.npy (npy, 832 bytes, 1 tensors)

array f4 [176]
0.032485053 -0.32108438 -0.1315091 -0.049760897 0.12686008 -0.17091385 0.017123021 -0.025397804
-0.047970545 -0.014271539 0.05507083 0.06195422 -0.024082946 -0.018580737 -0.1862719 0.18681765
0.07862414 0.034911793 0.00849486 0.1051577 -0.052316703 -0.10682004 -0.03130588 0.0054653203
-0.05839472 -0.047318008 0.024896927 -0.037691034 -0.03752601 -0.023457231 -0.09508572 0.038709365
0.13704303 0.051541977 -0.09388584 -0.083874576 -0.046434723 0.039946124 0.021754917 0.050448574
-0.03861282 0.018465243 -0.16564877 -0.039893143 -0.06080497 -0.020700596 0.0077725193 -0.033531673
0.00932503 0.032145143 -0.06639294 -0.2513918 -0.02482878 0.080577694 0.10599465 0.019346977
0.08997397 0.14195427 0.012124499 0.0459791 0.052967533 -0.08339743 -0.035497632 -0.64754534
0.052832093 -0.07677979 -0.027811546 0.091964245 -0.116977006 0.071154505 -0.03268981 0.092736475
0.037231605 0.09965646 0.011413058 -0.13476902 0.17203443 -0.04786215 0.036716975 -0.06227154
0.07998813 0.031205771 -0.072440006 -0.10345434 0.067108735 0.07936485 -0.41355774 -0.03924284
0.017838355 0.038035966 0.0811839 0.0026036827 -0.002584803 0.08902943 0.076375365 0.24663943
0.05333538 0.09024607 -0.041232847 -0.05700864 -0.016487632 0.07206661 0.049911074 0.053348027
0.011291722 -0.093587786 0.17542009 0.029817669 0.062471785 -0.086767435 0.030246802 -0.0284191
0.15839867 -0.12449057 -0.07494599 0.14791457 -0.039220504 -0.016557645 -0.04922295 0.1276333
0.05521292 0.10020914 0.0066753887 -0.17862442 -0.3538972 -0.03550547 0.05113786 0.11944756
0.008810441 0.035837997 0.20861138 -0.09590357 -0.091171734 -0.040489748 0.06381029 0.098346286
0.4528616 0.09760658 0.070045136 0.12813792 0.04984221 0.12039393 -0.032764338 0.016629757
0.049327374 -0.04355359 0.073769554 0.09417474 0.08398534 -0.1355834 0.04153214 -0.02460281
0.07174714 0.043431334 0.021396095 0.042368162 -0.0014985545 -0.16557848 0.05016957 -0.10539059
-0.21166967 -0.047289442 -0.07308626 -0.017048687 0.04706027 -0.016662192 0.24790604 -0.1243943
0.023907585 0.008294162 -0.07833968 0.09781811 0.016856762 0.015416282 0.048213996 -0.04850499
00000000: 0c0f 053d 2c65 a4be 52aa 06be 15d2 4bbd
00000010: 9ce7 013e 0a04 2fbe 9445 8c3c 0e0f d0bc
00000020: c37c 44bd 2cd3 69bc f391 613d b5c3 7d3d
00000030: 9949 c5bc a136 98bc 10be 3ebe 204d 3f3e
00000040: b105 a13d abff 0e3d 062e 0b3c ec5c d73d
00000050: 0a4a 56bd 77c4 dabd 983a 00bd 6e16 b33b
00000060: 4d2f 6fbd 87d0 41bd a4f4 cb3c ea61 1abd
00000070: e0b4 19bd 6129 c0bc 4dbc c2bd b68d 1e3d
00000080: 0255 0c3e ae1d 533d 3847 c0bd 6fc6 abbd
00000090: 5632 3ebd 8c9e 233d 5e37 b23c 2aa3 4e3d
000000a0: 7a28 1ebd 6c44 973c d59f 29be fe66 23bd
000000b0: a20e 79bd 4c94 a9bc 9eb0 fe3b 8258 09bd
000000c0: 03c8 183c a0aa 033d 06f9 87bd 6db6 80be
000000d0: ba65 cbbc eb05 a53d b913 d93d 8d7d 9e3c
000000e0: 4644 b83d 765c 113e d6a5 463c 9554 3c3d
000000f0: 7cf4 583d 46cc aabd f765 11bd 88c5 25bf
00000100: 7766 583d b93e 9dbd 0ad5 e3bc c057 bc3d
00000110: a491 efbd 74b9 913d c0e5 05bd 9fec bd3d
00000120: 2b80 183d b018 cc3d d6fd 3a3c e400 0abe
00000130: cb29 303e 1a0b 44bd 8a64 163d 7110 7fbd
00000140: d1d0 a33d 3fa3 ff3c 6d5b 94bd dedf d3bd
00000150: 4e70 893d 0a8a a23d d7bd d3be 1abd 20bd
00000160: be21 923c 9acb 1b3d bf43 a63d 8ca2 2a3b
00000170: cc65 29bb 1055 b63d b06a 9c3d 0c8f 7c3e
00000180: 3376 5a3d eed2 b83d c6e3 28bd e481 69bd
00000190: 1211 87bc a997 933d 8e6f 4c3d 7683 5a3d
000001a0: ea00 393c f4aa bfbd 53a1 333e 2f44 f43c
000001b0: 6ae2 7f3d 20b3 b1bd 24c8 f73c 2ccf e8bc
000001c0: 4333 223e e9f4 febd 497d 99bd eb76 173e
000001d0: aea5 20bd e6a3 87bc 019e 49bd 4eb2 023e
000001e0: f126 623d 733a cd3d 38bd da3b 52e9 36be
000001f0: 0432 b5be 2f6e 11bd ef75 513d eca0 f43d
00000200: ab59 103c ddca 123d 399e 553e 1769 c4bd
00000210: 3fb8 babd 94d8 25bd f8ae 823d c769 c93d
00000220: 7add e73e f5e5 c73d d373 8f3d 9636 033e
00000230: 5827 4c3d 1891 f63d e633 06bd 213b 883c
00000240: 800b 4a3d 4065 32bd 7e14 973d b0de c03d
00000250: 8200 ac3d 60d6 0abe 9b1d 2a3d d58b c9bc
00000260: 2af0 923d 0ee5 313d dd46 af3c 3d8a 2d3d
00000270: 256b c4ba 688d 29be 9b7e 4d3d 06d7 d7bd
00000280: efbf 58be 93b2 41bd 40ae 95bd b0a9 8bbc
00000290: 45c2 403d 267f 88bc 15db 7d3e 70c2 febd
000002a0: d7d9 c33c 3de4 073c 8e70 a0bd dc54 c83d
000002b0: 3117 8a3c 9394 7c3c 0a7c 453d 2bad 46bd
