param_nonquant/encoder.layers.9.feed_forward2.linear1.bias.npy (npy, 2944 bytes, 1 tensors)

array f4 [704]
0	0x3e1a7baa	0.15086237
1	0x3f0a2864	0.5396788
2	0x3ed5c4a4	0.41751587
3	0x3d13a832	0.036049075
4	0xbc6fdd18	-0.014640115
5	0xbe09d6ad	-0.13460799
6	0xbe362492	-0.17787388
7	0x3e25b0ce	0.16180727
8	0xbe04c3e9	-0.12965359
9	0xbc6e86f5	-0.014558543
10	0xbc4412dc	-0.011967387
11	0xbc80f4e7	-0.015741779
12	0xbe8158ac	-0.25262964
13	0xbe4e9e52	-0.20177582
14	0xbf715927	-0.9427666
15	0xbee850d1	-0.45374158
16	0x3d4a2016	0.049347006
17	0xbd913974	-0.070910364
18	0xbd8c3c28	-0.068474114
19	0xbe7b03c8	-0.24513161
20	0x3d1bea31	0.03806514
21	0xbeaa8e6e	-0.3331179
22	0xbd99b62d	-0.075054504
23	0xbee55fa5	-0.44799533
24	0xbecf6c40	-0.40512276
25	0xbf0ca7c0	-0.54943466
26	0xbf418cfa	-0.7560574
27	0x3ef9f697	0.48820946
28	0xbe87cf42	-0.26525313
29	0xbec12efc	-0.3773116
30	0xbec2d290	-0.3805127
31	0xbe011438	-0.12605369
32	0x3d590ded	0.052991796
33	0xbec39151	-0.38196805
34	0xbe1a6ccb	-0.15080564
35	0xbdc244f0	-0.09485805
36	0x3e5bfc8d	0.21483059
37	0xbf49cce3	-0.7882826
38	0xbe8d18cb	-0.27557978
39	0xbed9aee2	-0.42516237
40	0xbd97a334	-0.074041754
41	0x3de44a45	0.11146978
42	0xbe18eae2	-0.1493335
43	0xbe57e260	-0.21082449
44	0x3f0a736c	0.5408237
45	0xbe20c0dc	-0.1569857
46	0xbeaa4201	-0.33253482
47	0xbe3908d1	-0.1806977
48	0x3ebc7dac	0.3681463
49	0xbc60e951	-0.013727502
50	0xbe89d6aa	-0.26921588
51	0xbe077f7e	-0.13232228
52	0x3da41364	0.08011511
53	0xbf1698a0	-0.5882664
54	0x3cc8363b	0.024439922
55	0xbeb97e73	-0.36229286
56	0xbee55308	-0.4478991
57	0xbf2b2534	-0.6685364
58	0x3dfa3c92	0.12218584
59	0xbdea4f16	-0.11440866
60	0x3f12f28b	0.5740134
61	0x3c847e12	0.016173396
62	0xbe52ff04	-0.20605093
63	0x3db82c0c	0.08992776
64	0xbf6b1ce0	-0.91840935
65	0xbf166af6	-0.5875696
66	0xbeb11183	-0.34583673
67	0x3e57a44e	0.21058771
68	0xbc508c24	-0.012728725
69	0xbed4d275	-0.41566816
70	0x3db6e22f	0.0892986
71	0x3cbfe7b2	0.02342591
72	0x3e21901c	0.1577763
73	0xbeb0b1f3	-0.34510764
74	0x3efdddca	0.49583274
75	0xbdf767a4	-0.12080315
76	0xbd83768a	-0.06419094
77	0xbeb5ece6	-0.35532302
78	0xbe162f6a	-0.14666525
79	0x3ea5eb0d	0.32405892
80	0x3ef7e135	0.48414007
81	0xbe27548e	-0.16340849
82	0xbece7a9d	-0.40327922
83	0x3ef74758	0.48296618
84	0xbebaffe9	-0.3652337
85	0xbeb79272	-0.35853916
86	0xbeed2310	-0.46315813
87	0x3ed002e0	0.40627193
88	0xbe769d1b	-0.24083368
89	0x3e11dfe8	0.1424557
90	0xbdec73aa	-0.11545499
91	0x3ef84936	0.48493356
92	0xbe827cdd	-0.25485888
93	0xbe859e4a	-0.26097327
94	0x3eca0e63	0.394641
95	0x3ee21f73	0.4416462
96	0xbe8e324b	-0.27772745
97	0xbe71be89	-0.2360784
98	0xbe1fecae	-0.1561763
99	0xbe2f415e	-0.1711478
100	0xbe6951e5	-0.22785147
101	0x3e20d34c	0.15705603
102	0x3efa00ba	0.4882868
103	0xbf2b553c	-0.6692693
104	0xbe8b83de	-0.27249044
105	0xbf1cc883	-0.61243457
106	0xbe5715bd	-0.21004386
107	0xbf14a8c6	-0.5807003
108	0x3ddc7ec2	0.10766365
109	0xbe0c4cc9	-0.13701166
110	0xbe611456	-0.21980414
111	0xbeb6f8c5	-0.3573667
112	0xbf1a96db	-0.6038644
113	0xbd29d138	-0.041459292
114	0xbed84a1d	-0.42244044
115	0x3e1d0909	0.15335478
116	0xbe913a2a	-0.28364688
117	0xbe999064	-0.29992974
118	0xbe3e37d7	-0.18575989
119	0x3d018498	0.031620592
120	0xbe8d7b04	-0.27632916
121	0xbec957a9	-0.39324692
122	0xbeb82644	-0.35966694
123	0x3ead70a9	0.33875015
124	0xbe8c5d7b	-0.2741507
125	0x3ecc6c9c	0.39926612
126	0xbda32f14	-0.07967964
127	0xbdb09dca	-0.08623846
128	0xbe86c8b8	-0.2632501
129	0xbe02643c	-0.12733549
130	0x3e3fe8e6	0.18741187
131	0xbe4f5fcd	-0.20251389
132	0x3eff2d78	0.49839377
133	0xbeb5eb52	-0.35531098
134	0xbebaa18a	-0.3645137
135	0xbe3bbdcf	-0.18334125
136	0xbe1e7c9c	-0.15477222
137	0xbdb9b01a	-0.09066792
138	0x3da9bc8b	0.08287915
139	0x3e06adfc	0.13152307
140	0x3e05d767	0.1307045
141	0xbf3e7cb0	-0.7440901
142	0xbe5fb9e0	-0.2184825
143	0xbe339acd	-0.1753952
144	0x3e8fc5a9	0.2808049
145	0xbf2bc95d	-0.6710413
146	0x3cfb230f	0.030656366
147	0xbecd4a80	-0.400959
148	0x3cd3f2d0	0.025872618
149	0x3e3fcc2c	0.18730229
150	0xbd5abd31	-0.053403083
151	0xbd602526	-0.054722928
152	0xbe95517d	-0.29163733
153	0xbe9a5316	-0.30141515
154	0x3f1d4af6	0.61442506
155	0xbeae7552	-0.34073883
156	0x3e830b91	0.25594762
157	0x3d26f5c8	0.04076174
158	0x3e9fbbab	0.31197867
159	0xbeaa8097	-0.3330123
160	0xbea9832b	-0.33107886
161	0xbeeeba5e	-0.46626562
162	0x3f73780e	0.95105064
163	0xbf974166	-1.1816833
164	0xbea1f8dd	-0.3163518
165	0x3cb380cd	0.021912003
166	0xbe8290d6	-0.25501126
167	0xbe9673f7	-0.2938535
168	0xbf49ea34	-0.7887299
169	0x3df3b76a	0.11900218
170	0x3dce5153	0.10074105
171	0xbe99a9f1	-0.30012468
172	0x3e61968e	0.22030088
173	0xbe639138	-0.22223365
174	0x3e858d82	0.26084524
175	0x3e1f3366	0.1554695
176	0x3e63ac9a	0.22233811
177	0xbe0b9cb2	-0.13633993
178	0xbe351112	-0.17682293
179	0xbd61c6c0	-0.055121183
180	0x3e274151	0.1633351
181	0x3e9683a2	0.29397303
182	0xbdc54ec3	-0.09634163
183	0xbd1c34c7	-0.03813627
184	0xbf3e987d	-0.7445143
185	0x3e7a42f4	0.24439603
186	0x3e7e290c	0.24820346
187	0x3c2755b1	0.0102133015
188	0xbe4f7954	-0.20261127
189	0xbf213a86	-0.62979925
190	0x3dc8f8f2	0.098131076
191	0xbf108276	-0.5644907
192	0xbdb97314	-0.090551525
193	0x3e5a7204	0.21332556
194	0xbec719d8	-0.38886905
195	0xbdd1ab9e	-0.102378115
196	0xbdab21d8	-0.083560646
197	0x3e9c9872	0.30585057
198	0x3e79b4cd	0.24385376
199	0xbd2cc55b	-0.0421804
200	0xbe71c124	-0.23608834
201	0x3c8c5016	0.017128032
202	0x3eb36c96	0.35043782
203	0xbd47b586	-0.0487571
204	0x3d6e66d4	0.058203533
205	0xbe6a9f9b	-0.22912447
206	0xbe65b6e2	-0.22433046
207	0xbe7f7982	-0.24948695
208	0xbec69828	-0.3878796
209	0x3f7ab931	0.9793883
210	0x3e11d697	0.14242016
211	0xbf15279b	-0.5826356
212	0xbf2c8047	-0.67383236
213	0x3b247c06	0.0025098338
214	0xbe88a1f4	-0.2668606
215	0xbea04687	-0.31303808
216	0x3e1ca8c4	0.15298754
217	0xbf456b96	-0.7711729
218	0xbebe309d	-0.37146464
219	0x3e252b10	0.16129708
220	0x3f16cc4f	0.589055
221	0xbe0615e8	-0.13094294
222	0xbd11f436	-0.03563329
223	0xbecc72b7	-0.3993127
224	0x3e51b28e	0.2047827
225	0xbe50a052	-0.20373657
226	0xbeee0e6c	-0.46495378
227	0xbe1dee73	-0.15422992
228	0xbed0ae85	-0.40758148
229	0xbeac0fb6	-0.33605736
230	0x3e0fe399	0.14051665
231	0x3ec0f283	0.37685022
232	0xbe52b6c0	-0.20577526
233	0xbfa2975e	-1.2702444
234	0xbe4d11f2	-0.20026377
235	0xbf27ba6c	-0.6551883
236	0xbe493541	-0.19649221
237	0xbe85e7a6	-0.26153296
238	0xbea1c9e8	-0.31599355
239	0x3e0897f2	0.13339213
240	0xbf3c8306	-0.73637426
241	0xbf7a85e2	-0.9786054
242	0xbf9f1e82	-1.2431185
243	0x3e58a4b3	0.21156578
244	0x3e963a6a	0.2934144
245	0x3ecbfd81	0.39841846
246	0xbf189942	-0.5960885
247	0xbd62a710	-0.055335104
248	0xbec7ceb9	-0.39024904
249	0xbe7a4236	-0.2443932
250	0xbe0358a6	-0.12826785
251	0xbe9571d0	-0.29188395
252	0xbdb294be	-0.087197766
253	0xbe83574e	-0.25652546
254	0xbed5fffe	-0.4179687
255	0xbe115e97	-0.1419624
