param_nonquant/encoder.layers.13.self_attn.linear_out.bias.npy (npy, 832 bytes, 1 tensors)

array f4 [176]
0.25919157 -0.09218161 -0.5202258 -0.17417815 -0.1973655 -0.3298238 -0.07060665 0.278732
-0.8103074 0.26491335 -0.21244946 0.6256133 -0.58446074 -0.49880117 -0.307551 -0.20761138
-0.76979643 -0.49535757 -0.15816715 0.2341105 0.0017587827 0.1949797 -0.57675654 0.18299203
0.28722537 0.60830086 -0.43788347 0.30126834 0.07879992 0.33825234 -0.6711339 -0.2593336
-0.3251422 -0.12838417 -0.5453207 -0.3104741 -0.49879646 0.09661242 -0.07057719 -0.18203346
0.39482984 -0.43528193 0.43028748 -0.21943122 -0.6799632 0.44250312 0.59710133 -0.026417345
-0.39187717 0.31879222 0.101526625 0.15227862 -0.35409164 0.12730038 -0.3901197 0.5650898
-0.18005925 0.5508842 -0.021279214 -1.0361557 0.30615368 -0.05786658 0.0048359926 0.5801221
-0.2668343 0.18915053 0.14476225 0.3053271 0.60486925 -0.13234267 -0.9853482 0.48301405
-0.41010073 0.27535868 0.11022301 0.2353284 -0.06881967 0.36284083 -0.20945805 0.053218987
-0.24643146 0.16557187 -0.15111107 1.0641959 0.05038752 0.32202703 -0.2051946 0.3542945
0.2839175 0.12966035 0.40657023 -0.3364631 0.24882367 -0.506908 -0.4322967 -0.23717585
0.038115118 -0.37731975 0.088028565 -0.5031836 0.2687104 -0.039028317 0.66216296 0.034379568
-0.22936192 0.034430265 0.29179943 0.41533163 0.03752793 -0.2630126 -0.19826773 0.26238674
0.40789267 0.021787193 0.4879043 -0.29236194 0.15844706 -0.43551177 -0.12141943 0.5566353
0.48259994 0.8067373 0.09626922 -0.37194663 -0.0366695 -0.5649488 -0.06442875 0.29033288
-0.6120222 -0.31953248 -0.046742715 0.0690353 0.081428126 0.4830331 0.2844089 -0.34644866
0.5374454 -0.46269503 0.61395085 -0.06514573 -0.37507656 -0.3816679 -0.131051 0.45170492
-0.1782228 0.16655979 0.0027096784 0.46846434 -0.2998167 0.14249845 0.5323294 0.06371686
0.97320855 -0.4038885 -0.24223328 0.14801762 -0.19845256 0.35322338 0.012278175 -0.0679436
0.11375891 0.581585 -0.09203403 0.04763771 0.08880804 -0.11078365 0.32492286 0.2339761
-0.32791948 -0.25318635 0.41588503 0.3304454 -0.6175096 0.2156642 0.42431736 0.13135856
00000000: c2b4 843e b6c9 bcbd 852d 05bf c25b 32be
00000010: 2e1a 4abe aade a8be 389a 90bd f6b5 8e3e
00000020: 4e70 4fbf b9a2 873e 5a8c 59be 3128 203f
00000030: 389f 15bf de62 ffbe 5377 9dbe 1498 54be
00000040: 6111 45bf 829f fdbe 92f6 21be aaba 6f3e
00000050: f486 e63a c2a8 473e 51a6 13bf 4362 3b3e
00000060: 340f 933e 9bb9 1b3f 4332 e0be d83f 9a3e
00000070: da61 a13d 692f ad3e 6ecf 2bbf 60c7 84be
00000080: 0a79 a6be 2477 03be 239a 0bbf 76f6 9ebe
00000090: 4062 ffbe bcdc c53d c68a 90bd fb66 3abe
000000a0: 2327 ca3e 46dd debe a44e dc3e 94b2 60be
000000b0: 1112 2ebf c58f e23e a2db 183f 3069 d8bc
000000c0: 20a4 c8be bc38 a33e 31ed cf3d edee 1b3e
000000d0: 804b b5be 085b 023e c5bd c7be baa9 103f
000000e0: 7461 38be bf06 0d3f bf51 aebc c0a0 84bf
000000f0: 2dc0 9c3e 8205 6dbd 3f77 9e3b e282 143f
00000100: 819e 88be adb0 413e 8e3c 143e d553 9c3e
00000110: b6d8 1a3f d684 07be c83f 7cbf 9e4d f73e
00000120: b9f8 d1be d0fb 8c3e 9abc e13d eef9 703e
00000130: 54f1 8cbd 46c6 b93e 2c7c 56be 27fc 593d
00000140: 8758 7cbe ac8b 293e dcbc 1abe 9237 883f
00000150: 2563 4e3d bae0 a43e 891e 52be 1766 b53e
00000160: a25d 913e afc5 043e f929 d03e e444 acbe
00000170: a2cb 7e3e b9c4 01bf fe55 ddbe 3ade 72be
00000180: 991e 1c3d 0e30 c1be 5248 b43d a4d0 00bf
00000190: 6994 893e 28dc 1fbd 8383 293f 97d1 0c3d
000001a0: dadd 6abe c006 0d3d bc66 953e 59a6 d43e
000001b0: e3b6 193d 96a9 86be b206 4bbe 8e57 863e
000001c0: 4fd7 d03e 0e7b b23c 98ce f93e 77b0 95be
000001d0: f23f 223e 66fb debe c0aa f8bd a77f 0e3f
000001e0: 5717 f73e 5686 4e3f cc28 c53d ca6f bebe
000001f0: c232 16bd 7ca0 10bf 38f3 83bd 83a6 943e
00000200: 7dad 1cbf c399 a3be 4a75 3fbd 6162 8d3d
00000210: cac3 a63d 1d50 f73e 0b9e 913e b861 b1be
00000220: 0696 093f 5de6 ecbe e22b 1d3f 206b 85bd
00000230: 090a c0be fa69 c3be 3c32 06be de45 e73e
00000240: 0a80 36be a68e 2a3e dc94 313b 8fda ef3e
00000250: 9381 99be 1deb 113e bd46 083f fc7d 823d
00000260: 3224 793f 79ca cebe 000c 78be ee91 173e
00000270: 2637 4bbe b2d9 b43e 662a 493c 0426 8bbd
00000280: 6efa e83d c1e2 143f 567c bcbd c21f 433d
00000290: fde0 b53d 8ae2 e2bd 4a5c a63e 6e97 6f3e
000002a0: 10e5 a7be a4a1 81be e2ee d43e 2430 a93e
000002b0: 1c15 1ebf 13d7 5c3e 2040 d93e dc82 063e
